node {
  name: "Const"
  op: "Const"
  attr {
    key: "dtype"
    value {
      type: DT_STRING
    }
  }
  attr {
    key: "value"
    value {
      tensor {
        dtype: DT_STRING
        tensor_shape {
        }
        string_val: "data/train_arlu.tfrecord"
      }
    }
  }
}
node {
  name: "flat_filenames/shape"
  op: "Const"
  attr {
    key: "dtype"
    value {
      type: DT_INT32
    }
  }
  attr {
    key: "value"
    value {
      tensor {
        dtype: DT_INT32
        tensor_shape {
          dim {
            size: 1
          }
        }
        int_val: -1
      }
    }
  }
}
node {
  name: "flat_filenames"
  op: "Reshape"
  input: "Const"
  input: "flat_filenames/shape"
  attr {
    key: "T"
    value {
      type: DT_STRING
    }
  }
  attr {
    key: "Tshape"
    value {
      type: DT_INT32
    }
  }
}
node {
  name: "num_parallel_calls"
  op: "Const"
  attr {
    key: "dtype"
    value {
      type: DT_INT32
    }
  }
  attr {
    key: "value"
    value {
      tensor {
        dtype: DT_INT32
        tensor_shape {
        }
        int_val: 4
      }
    }
  }
}
node {
  name: "num_parallel_calls_1"
  op: "Const"
  attr {
    key: "dtype"
    value {
      type: DT_INT32
    }
  }
  attr {
    key: "value"
    value {
      tensor {
        dtype: DT_INT32
        tensor_shape {
        }
        int_val: 4
      }
    }
  }
}
node {
  name: "count"
  op: "Const"
  attr {
    key: "dtype"
    value {
      type: DT_INT64
    }
  }
  attr {
    key: "value"
    value {
      tensor {
        dtype: DT_INT64
        tensor_shape {
        }
        int64_val: -1
      }
    }
  }
}
node {
  name: "OneShotIterator"
  op: "OneShotIterator"
  attr {
    key: "container"
    value {
      s: ""
    }
  }
  attr {
    key: "dataset_factory"
    value {
      func {
        name: "_make_dataset_wBeAOCZE1EI"
      }
    }
  }
  attr {
    key: "output_shapes"
    value {
      list {
        shape {
          dim {
            size: -1
          }
          dim {
            size: 7680
          }
        }
        shape {
          dim {
            size: -1
          }
          dim {
            size: 7680
          }
          dim {
            size: 256
          }
        }
        shape {
          dim {
            size: -1
          }
          dim {
            size: 7680
          }
        }
        shape {
          dim {
            size: -1
          }
          dim {
            size: 30
          }
          dim {
            size: 128
          }
        }
      }
    }
  }
  attr {
    key: "output_types"
    value {
      list {
        type: DT_INT32
        type: DT_FLOAT
        type: DT_FLOAT
        type: DT_FLOAT
      }
    }
  }
  attr {
    key: "shared_name"
    value {
      s: ""
    }
  }
}
node {
  name: "IteratorToStringHandle"
  op: "IteratorToStringHandle"
  input: "OneShotIterator"
}
node {
  name: "IteratorGetNext"
  op: "IteratorGetNext"
  input: "OneShotIterator"
  attr {
    key: "output_shapes"
    value {
      list {
        shape {
          dim {
            size: -1
          }
          dim {
            size: 7680
          }
        }
        shape {
          dim {
            size: -1
          }
          dim {
            size: 7680
          }
          dim {
            size: 256
          }
        }
        shape {
          dim {
            size: -1
          }
          dim {
            size: 7680
          }
        }
        shape {
          dim {
            size: -1
          }
          dim {
            size: 30
          }
          dim {
            size: 128
          }
        }
      }
    }
  }
  attr {
    key: "output_types"
    value {
      list {
        type: DT_INT32
        type: DT_FLOAT
        type: DT_FLOAT
        type: DT_FLOAT
      }
    }
  }
}
node {
  name: "Upsample/Deconvolution/ExpandDims/dim"
  op: "Const"
  attr {
    key: "dtype"
    value {
      type: DT_INT32
    }
  }
  attr {
    key: "value"
    value {
      tensor {
        dtype: DT_INT32
        tensor_shape {
        }
        int_val: 1
      }
    }
  }
}
node {
  name: "Upsample/Deconvolution/ExpandDims"
  op: "ExpandDims"
  input: "IteratorGetNext:3"
  input: "Upsample/Deconvolution/ExpandDims/dim"
  attr {
    key: "T"
    value {
      type: DT_FLOAT
    }
  }
  attr {
    key: "Tdim"
    value {
      type: DT_INT32
    }
  }
}
node {
  name: "Upsample/Deconvolution/conv2d_transpose/kernel/Initializer/random_uniform/shape"
  op: "Const"
  attr {
    key: "_class"
    value {
      list {
        s: "loc:@Upsample/Deconvolution/conv2d_transpose/kernel"
      }
    }
  }
  attr {
    key: "dtype"
    value {
      type: DT_INT32
    }
  }
  attr {
    key: "value"
    value {
      tensor {
        dtype: DT_INT32
        tensor_shape {
          dim {
            size: 4
          }
        }
        tensor_content: "\001\000\000\000\020\000\000\000\200\000\000\000\200\000\000\000"
      }
    }
  }
}
node {
  name: "Upsample/Deconvolution/conv2d_transpose/kernel/Initializer/random_uniform/min"
  op: "Const"
  attr {
    key: "_class"
    value {
      list {
        s: "loc:@Upsample/Deconvolution/conv2d_transpose/kernel"
      }
    }
  }
  attr {
    key: "dtype"
    value {
      type: DT_FLOAT
    }
  }
  attr {
    key: "value"
    value {
      tensor {
        dtype: DT_FLOAT
        tensor_shape {
        }
        float_val: -0.03827327862381935
      }
    }
  }
}
node {
  name: "Upsample/Deconvolution/conv2d_transpose/kernel/Initializer/random_uniform/max"
  op: "Const"
  attr {
    key: "_class"
    value {
      list {
        s: "loc:@Upsample/Deconvolution/conv2d_transpose/kernel"
      }
    }
  }
  attr {
    key: "dtype"
    value {
      type: DT_FLOAT
    }
  }
  attr {
    key: "value"
    value {
      tensor {
        dtype: DT_FLOAT
        tensor_shape {
        }
        float_val: 0.03827327862381935
      }
    }
  }
}
node {
  name: "Upsample/Deconvolution/conv2d_transpose/kernel/Initializer/random_uniform/RandomUniform"
  op: "RandomUniform"
  input: "Upsample/Deconvolution/conv2d_transpose/kernel/Initializer/random_uniform/shape"
  attr {
    key: "T"
    value {
      type: DT_INT32
    }
  }
  attr {
    key: "_class"
    value {
      list {
        s: "loc:@Upsample/Deconvolution/conv2d_transpose/kernel"
      }
    }
  }
  attr {
    key: "dtype"
    value {
      type: DT_FLOAT
    }
  }
  attr {
    key: "seed"
    value {
      i: 0
    }
  }
  attr {
    key: "seed2"
    value {
      i: 0
    }
  }
}
node {
  name: "Upsample/Deconvolution/conv2d_transpose/kernel/Initializer/random_uniform/sub"
  op: "Sub"
  input: "Upsample/Deconvolution/conv2d_transpose/kernel/Initializer/random_uniform/max"
  input: "Upsample/Deconvolution/conv2d_transpose/kernel/Initializer/random_uniform/min"
  attr {
    key: "T"
    value {
      type: DT_FLOAT
    }
  }
  attr {
    key: "_class"
    value {
      list {
        s: "loc:@Upsample/Deconvolution/conv2d_transpose/kernel"
      }
    }
  }
}
node {
  name: "Upsample/Deconvolution/conv2d_transpose/kernel/Initializer/random_uniform/mul"
  op: "Mul"
  input: "Upsample/Deconvolution/conv2d_transpose/kernel/Initializer/random_uniform/RandomUniform"
  input: "Upsample/Deconvolution/conv2d_transpose/kernel/Initializer/random_uniform/sub"
  attr {
    key: "T"
    value {
      type: DT_FLOAT
    }
  }
  attr {
    key: "_class"
    value {
      list {
        s: "loc:@Upsample/Deconvolution/conv2d_transpose/kernel"
      }
    }
  }
}
node {
  name: "Upsample/Deconvolution/conv2d_transpose/kernel/Initializer/random_uniform"
  op: "Add"
  input: "Upsample/Deconvolution/conv2d_transpose/kernel/Initializer/random_uniform/mul"
  input: "Upsample/Deconvolution/conv2d_transpose/kernel/Initializer/random_uniform/min"
  attr {
    key: "T"
    value {
      type: DT_FLOAT
    }
  }
  attr {
    key: "_class"
    value {
      list {
        s: "loc:@Upsample/Deconvolution/conv2d_transpose/kernel"
      }
    }
  }
}
node {
  name: "Upsample/Deconvolution/conv2d_transpose/kernel"
  op: "VariableV2"
  attr {
    key: "_class"
    value {
      list {
        s: "loc:@Upsample/Deconvolution/conv2d_transpose/kernel"
      }
    }
  }
  attr {
    key: "container"
    value {
      s: ""
    }
  }
  attr {
    key: "dtype"
    value {
      type: DT_FLOAT
    }
  }
  attr {
    key: "shape"
    value {
      shape {
        dim {
          size: 1
        }
        dim {
          size: 16
        }
        dim {
          size: 128
        }
        dim {
          size: 128
        }
      }
    }
  }
  attr {
    key: "shared_name"
    value {
      s: ""
    }
  }
}
node {
  name: "Upsample/Deconvolution/conv2d_transpose/kernel/Assign"
  op: "Assign"
  input: "Upsample/Deconvolution/conv2d_transpose/kernel"
  input: "Upsample/Deconvolution/conv2d_transpose/kernel/Initializer/random_uniform"
  attr {
    key: "T"
    value {
      type: DT_FLOAT
    }
  }
  attr {
    key: "_class"
    value {
      list {
        s: "loc:@Upsample/Deconvolution/conv2d_transpose/kernel"
      }
    }
  }
  attr {
    key: "use_locking"
    value {
      b: true
    }
  }
  attr {
    key: "validate_shape"
    value {
      b: true
    }
  }
}
node {
  name: "Upsample/Deconvolution/conv2d_transpose/kernel/read"
  op: "Identity"
  input: "Upsample/Deconvolution/conv2d_transpose/kernel"
  attr {
    key: "T"
    value {
      type: DT_FLOAT
    }
  }
  attr {
    key: "_class"
    value {
      list {
        s: "loc:@Upsample/Deconvolution/conv2d_transpose/kernel"
      }
    }
  }
}
node {
  name: "Upsample/Deconvolution/conv2d_transpose/bias/Initializer/zeros"
  op: "Const"
  attr {
    key: "_class"
    value {
      list {
        s: "loc:@Upsample/Deconvolution/conv2d_transpose/bias"
      }
    }
  }
  attr {
    key: "dtype"
    value {
      type: DT_FLOAT
    }
  }
  attr {
    key: "value"
    value {
      tensor {
        dtype: DT_FLOAT
        tensor_shape {
          dim {
            size: 128
          }
        }
        float_val: 0.0
      }
    }
  }
}
node {
  name: "Upsample/Deconvolution/conv2d_transpose/bias"
  op: "VariableV2"
  attr {
    key: "_class"
    value {
      list {
        s: "loc:@Upsample/Deconvolution/conv2d_transpose/bias"
      }
    }
  }
  attr {
    key: "container"
    value {
      s: ""
    }
  }
  attr {
    key: "dtype"
    value {
      type: DT_FLOAT
    }
  }
  attr {
    key: "shape"
    value {
      shape {
        dim {
          size: 128
        }
      }
    }
  }
  attr {
    key: "shared_name"
    value {
      s: ""
    }
  }
}
node {
  name: "Upsample/Deconvolution/conv2d_transpose/bias/Assign"
  op: "Assign"
  input: "Upsample/Deconvolution/conv2d_transpose/bias"
  input: "Upsample/Deconvolution/conv2d_transpose/bias/Initializer/zeros"
  attr {
    key: "T"
    value {
      type: DT_FLOAT
    }
  }
  attr {
    key: "_class"
    value {
      list {
        s: "loc:@Upsample/Deconvolution/conv2d_transpose/bias"
      }
    }
  }
  attr {
    key: "use_locking"
    value {
      b: true
    }
  }
  attr {
    key: "validate_shape"
    value {
      b: true
    }
  }
}
node {
  name: "Upsample/Deconvolution/conv2d_transpose/bias/read"
  op: "Identity"
  input: "Upsample/Deconvolution/conv2d_transpose/bias"
  attr {
    key: "T"
    value {
      type: DT_FLOAT
    }
  }
  attr {
    key: "_class"
    value {
      list {
        s: "loc:@Upsample/Deconvolution/conv2d_transpose/bias"
      }
    }
  }
}
node {
  name: "Upsample/Deconvolution/conv2d_transpose/Shape"
  op: "Shape"
  input: "Upsample/Deconvolution/ExpandDims"
  attr {
    key: "T"
    value {
      type: DT_FLOAT
    }
  }
  attr {
    key: "out_type"
    value {
      type: DT_INT32
    }
  }
}
node {
  name: "Upsample/Deconvolution/conv2d_transpose/strided_slice/stack"
  op: "Const"
  attr {
    key: "dtype"
    value {
      type: DT_INT32
    }
  }
  attr {
    key: "value"
    value {
      tensor {
        dtype: DT_INT32
        tensor_shape {
          dim {
            size: 1
          }
        }
        int_val: 0
      }
    }
  }
}
node {
  name: "Upsample/Deconvolution/conv2d_transpose/strided_slice/stack_1"
  op: "Const"
  attr {
    key: "dtype"
    value {
      type: DT_INT32
    }
  }
  attr {
    key: "value"
    value {
      tensor {
        dtype: DT_INT32
        tensor_shape {
          dim {
            size: 1
          }
        }
        int_val: 1
      }
    }
  }
}
node {
  name: "Upsample/Deconvolution/conv2d_transpose/strided_slice/stack_2"
  op: "Const"
  attr {
    key: "dtype"
    value {
      type: DT_INT32
    }
  }
  attr {
    key: "value"
    value {
      tensor {
        dtype: DT_INT32
        tensor_shape {
          dim {
            size: 1
          }
        }
        int_val: 1
      }
    }
  }
}
node {
  name: "Upsample/Deconvolution/conv2d_transpose/strided_slice"
  op: "StridedSlice"
  input: "Upsample/Deconvolution/conv2d_transpose/Shape"
  input: "Upsample/Deconvolution/conv2d_transpose/strided_slice/stack"
  input: "Upsample/Deconvolution/conv2d_transpose/strided_slice/stack_1"
  input: "Upsample/Deconvolution/conv2d_transpose/strided_slice/stack_2"
  attr {
    key: "Index"
    value {
      type: DT_INT32
    }
  }
  attr {
    key: "T"
    value {
      type: DT_INT32
    }
  }
  attr {
    key: "begin_mask"
    value {
      i: 0
    }
  }
  attr {
    key: "ellipsis_mask"
    value {
      i: 0
    }
  }
  attr {
    key: "end_mask"
    value {
      i: 0
    }
  }
  attr {
    key: "new_axis_mask"
    value {
      i: 0
    }
  }
  attr {
    key: "shrink_axis_mask"
    value {
      i: 1
    }
  }
}
node {
  name: "Upsample/Deconvolution/conv2d_transpose/strided_slice_1/stack"
  op: "Const"
  attr {
    key: "dtype"
    value {
      type: DT_INT32
    }
  }
  attr {
    key: "value"
    value {
      tensor {
        dtype: DT_INT32
        tensor_shape {
          dim {
            size: 1
          }
        }
        int_val: 1
      }
    }
  }
}
node {
  name: "Upsample/Deconvolution/conv2d_transpose/strided_slice_1/stack_1"
  op: "Const"
  attr {
    key: "dtype"
    value {
      type: DT_INT32
    }
  }
  attr {
    key: "value"
    value {
      tensor {
        dtype: DT_INT32
        tensor_shape {
          dim {
            size: 1
          }
        }
        int_val: 2
      }
    }
  }
}
node {
  name: "Upsample/Deconvolution/conv2d_transpose/strided_slice_1/stack_2"
  op: "Const"
  attr {
    key: "dtype"
    value {
      type: DT_INT32
    }
  }
  attr {
    key: "value"
    value {
      tensor {
        dtype: DT_INT32
        tensor_shape {
          dim {
            size: 1
          }
        }
        int_val: 1
      }
    }
  }
}
node {
  name: "Upsample/Deconvolution/conv2d_transpose/strided_slice_1"
  op: "StridedSlice"
  input: "Upsample/Deconvolution/conv2d_transpose/Shape"
  input: "Upsample/Deconvolution/conv2d_transpose/strided_slice_1/stack"
  input: "Upsample/Deconvolution/conv2d_transpose/strided_slice_1/stack_1"
  input: "Upsample/Deconvolution/conv2d_transpose/strided_slice_1/stack_2"
  attr {
    key: "Index"
    value {
      type: DT_INT32
    }
  }
  attr {
    key: "T"
    value {
      type: DT_INT32
    }
  }
  attr {
    key: "begin_mask"
    value {
      i: 0
    }
  }
  attr {
    key: "ellipsis_mask"
    value {
      i: 0
    }
  }
  attr {
    key: "end_mask"
    value {
      i: 0
    }
  }
  attr {
    key: "new_axis_mask"
    value {
      i: 0
    }
  }
  attr {
    key: "shrink_axis_mask"
    value {
      i: 1
    }
  }
}
node {
  name: "Upsample/Deconvolution/conv2d_transpose/strided_slice_2/stack"
  op: "Const"
  attr {
    key: "dtype"
    value {
      type: DT_INT32
    }
  }
  attr {
    key: "value"
    value {
      tensor {
        dtype: DT_INT32
        tensor_shape {
          dim {
            size: 1
          }
        }
        int_val: 2
      }
    }
  }
}
node {
  name: "Upsample/Deconvolution/conv2d_transpose/strided_slice_2/stack_1"
  op: "Const"
  attr {
    key: "dtype"
    value {
      type: DT_INT32
    }
  }
  attr {
    key: "value"
    value {
      tensor {
        dtype: DT_INT32
        tensor_shape {
          dim {
            size: 1
          }
        }
        int_val: 3
      }
    }
  }
}
node {
  name: "Upsample/Deconvolution/conv2d_transpose/strided_slice_2/stack_2"
  op: "Const"
  attr {
    key: "dtype"
    value {
      type: DT_INT32
    }
  }
  attr {
    key: "value"
    value {
      tensor {
        dtype: DT_INT32
        tensor_shape {
          dim {
            size: 1
          }
        }
        int_val: 1
      }
    }
  }
}
node {
  name: "Upsample/Deconvolution/conv2d_transpose/strided_slice_2"
  op: "StridedSlice"
  input: "Upsample/Deconvolution/conv2d_transpose/Shape"
  input: "Upsample/Deconvolution/conv2d_transpose/strided_slice_2/stack"
  input: "Upsample/Deconvolution/conv2d_transpose/strided_slice_2/stack_1"
  input: "Upsample/Deconvolution/conv2d_transpose/strided_slice_2/stack_2"
  attr {
    key: "Index"
    value {
      type: DT_INT32
    }
  }
  attr {
    key: "T"
    value {
      type: DT_INT32
    }
  }
  attr {
    key: "begin_mask"
    value {
      i: 0
    }
  }
  attr {
    key: "ellipsis_mask"
    value {
      i: 0
    }
  }
  attr {
    key: "end_mask"
    value {
      i: 0
    }
  }
  attr {
    key: "new_axis_mask"
    value {
      i: 0
    }
  }
  attr {
    key: "shrink_axis_mask"
    value {
      i: 1
    }
  }
}
node {
  name: "Upsample/Deconvolution/conv2d_transpose/mul/y"
  op: "Const"
  attr {
    key: "dtype"
    value {
      type: DT_INT32
    }
  }
  attr {
    key: "value"
    value {
      tensor {
        dtype: DT_INT32
        tensor_shape {
        }
        int_val: 1
      }
    }
  }
}
node {
  name: "Upsample/Deconvolution/conv2d_transpose/mul"
  op: "Mul"
  input: "Upsample/Deconvolution/conv2d_transpose/strided_slice_1"
  input: "Upsample/Deconvolution/conv2d_transpose/mul/y"
  attr {
    key: "T"
    value {
      type: DT_INT32
    }
  }
}
node {
  name: "Upsample/Deconvolution/conv2d_transpose/add/y"
  op: "Const"
  attr {
    key: "dtype"
    value {
      type: DT_INT32
    }
  }
  attr {
    key: "value"
    value {
      tensor {
        dtype: DT_INT32
        tensor_shape {
        }
        int_val: 0
      }
    }
  }
}
node {
  name: "Upsample/Deconvolution/conv2d_transpose/add"
  op: "Add"
  input: "Upsample/Deconvolution/conv2d_transpose/mul"
  input: "Upsample/Deconvolution/conv2d_transpose/add/y"
  attr {
    key: "T"
    value {
      type: DT_INT32
    }
  }
}
node {
  name: "Upsample/Deconvolution/conv2d_transpose/mul_1/y"
  op: "Const"
  attr {
    key: "dtype"
    value {
      type: DT_INT32
    }
  }
  attr {
    key: "value"
    value {
      tensor {
        dtype: DT_INT32
        tensor_shape {
        }
        int_val: 16
      }
    }
  }
}
node {
  name: "Upsample/Deconvolution/conv2d_transpose/mul_1"
  op: "Mul"
  input: "Upsample/Deconvolution/conv2d_transpose/strided_slice_2"
  input: "Upsample/Deconvolution/conv2d_transpose/mul_1/y"
  attr {
    key: "T"
    value {
      type: DT_INT32
    }
  }
}
node {
  name: "Upsample/Deconvolution/conv2d_transpose/add_1/y"
  op: "Const"
  attr {
    key: "dtype"
    value {
      type: DT_INT32
    }
  }
  attr {
    key: "value"
    value {
      tensor {
        dtype: DT_INT32
        tensor_shape {
        }
        int_val: 0
      }
    }
  }
}
node {
  name: "Upsample/Deconvolution/conv2d_transpose/add_1"
  op: "Add"
  input: "Upsample/Deconvolution/conv2d_transpose/mul_1"
  input: "Upsample/Deconvolution/conv2d_transpose/add_1/y"
  attr {
    key: "T"
    value {
      type: DT_INT32
    }
  }
}
node {
  name: "Upsample/Deconvolution/conv2d_transpose/stack/3"
  op: "Const"
  attr {
    key: "dtype"
    value {
      type: DT_INT32
    }
  }
  attr {
    key: "value"
    value {
      tensor {
        dtype: DT_INT32
        tensor_shape {
        }
        int_val: 128
      }
    }
  }
}
node {
  name: "Upsample/Deconvolution/conv2d_transpose/stack"
  op: "Pack"
  input: "Upsample/Deconvolution/conv2d_transpose/strided_slice"
  input: "Upsample/Deconvolution/conv2d_transpose/add"
  input: "Upsample/Deconvolution/conv2d_transpose/add_1"
  input: "Upsample/Deconvolution/conv2d_transpose/stack/3"
  attr {
    key: "N"
    value {
      i: 4
    }
  }
  attr {
    key: "T"
    value {
      type: DT_INT32
    }
  }
  attr {
    key: "axis"
    value {
      i: 0
    }
  }
}
node {
  name: "Upsample/Deconvolution/conv2d_transpose/conv2d_transpose"
  op: "Conv2DBackpropInput"
  input: "Upsample/Deconvolution/conv2d_transpose/stack"
  input: "Upsample/Deconvolution/conv2d_transpose/kernel/read"
  input: "Upsample/Deconvolution/ExpandDims"
  attr {
    key: "T"
    value {
      type: DT_FLOAT
    }
  }
  attr {
    key: "data_format"
    value {
      s: "NHWC"
    }
  }
  attr {
    key: "dilations"
    value {
      list {
        i: 1
        i: 1
        i: 1
        i: 1
      }
    }
  }
  attr {
    key: "padding"
    value {
      s: "VALID"
    }
  }
  attr {
    key: "strides"
    value {
      list {
        i: 1
        i: 1
        i: 16
        i: 1
      }
    }
  }
  attr {
    key: "use_cudnn_on_gpu"
    value {
      b: true
    }
  }
}
node {
  name: "Upsample/Deconvolution/conv2d_transpose/BiasAdd"
  op: "BiasAdd"
  input: "Upsample/Deconvolution/conv2d_transpose/conv2d_transpose"
  input: "Upsample/Deconvolution/conv2d_transpose/bias/read"
  attr {
    key: "T"
    value {
      type: DT_FLOAT
    }
  }
  attr {
    key: "data_format"
    value {
      s: "NHWC"
    }
  }
}
node {
  name: "Upsample/Deconvolution/Relu"
  op: "Relu"
  input: "Upsample/Deconvolution/conv2d_transpose/BiasAdd"
  attr {
    key: "T"
    value {
      type: DT_FLOAT
    }
  }
}
node {
  name: "Upsample/Deconvolution/conv2d_transpose_1/kernel/Initializer/random_uniform/shape"
  op: "Const"
  attr {
    key: "_class"
    value {
      list {
        s: "loc:@Upsample/Deconvolution/conv2d_transpose_1/kernel"
      }
    }
  }
  attr {
    key: "dtype"
    value {
      type: DT_INT32
    }
  }
  attr {
    key: "value"
    value {
      tensor {
        dtype: DT_INT32
        tensor_shape {
          dim {
            size: 4
          }
        }
        tensor_content: "\001\000\000\000\020\000\000\000\200\000\000\000\200\000\000\000"
      }
    }
  }
}
node {
  name: "Upsample/Deconvolution/conv2d_transpose_1/kernel/Initializer/random_uniform/min"
  op: "Const"
  attr {
    key: "_class"
    value {
      list {
        s: "loc:@Upsample/Deconvolution/conv2d_transpose_1/kernel"
      }
    }
  }
  attr {
    key: "dtype"
    value {
      type: DT_FLOAT
    }
  }
  attr {
    key: "value"
    value {
      tensor {
        dtype: DT_FLOAT
        tensor_shape {
        }
        float_val: -0.03827327862381935
      }
    }
  }
}
node {
  name: "Upsample/Deconvolution/conv2d_transpose_1/kernel/Initializer/random_uniform/max"
  op: "Const"
  attr {
    key: "_class"
    value {
      list {
        s: "loc:@Upsample/Deconvolution/conv2d_transpose_1/kernel"
      }
    }
  }
  attr {
    key: "dtype"
    value {
      type: DT_FLOAT
    }
  }
  attr {
    key: "value"
    value {
      tensor {
        dtype: DT_FLOAT
        tensor_shape {
        }
        float_val: 0.03827327862381935
      }
    }
  }
}
node {
  name: "Upsample/Deconvolution/conv2d_transpose_1/kernel/Initializer/random_uniform/RandomUniform"
  op: "RandomUniform"
  input: "Upsample/Deconvolution/conv2d_transpose_1/kernel/Initializer/random_uniform/shape"
  attr {
    key: "T"
    value {
      type: DT_INT32
    }
  }
  attr {
    key: "_class"
    value {
      list {
        s: "loc:@Upsample/Deconvolution/conv2d_transpose_1/kernel"
      }
    }
  }
  attr {
    key: "dtype"
    value {
      type: DT_FLOAT
    }
  }
  attr {
    key: "seed"
    value {
      i: 0
    }
  }
  attr {
    key: "seed2"
    value {
      i: 0
    }
  }
}
node {
  name: "Upsample/Deconvolution/conv2d_transpose_1/kernel/Initializer/random_uniform/sub"
  op: "Sub"
  input: "Upsample/Deconvolution/conv2d_transpose_1/kernel/Initializer/random_uniform/max"
  input: "Upsample/Deconvolution/conv2d_transpose_1/kernel/Initializer/random_uniform/min"
  attr {
    key: "T"
    value {
      type: DT_FLOAT
    }
  }
  attr {
    key: "_class"
    value {
      list {
        s: "loc:@Upsample/Deconvolution/conv2d_transpose_1/kernel"
      }
    }
  }
}
node {
  name: "Upsample/Deconvolution/conv2d_transpose_1/kernel/Initializer/random_uniform/mul"
  op: "Mul"
  input: "Upsample/Deconvolution/conv2d_transpose_1/kernel/Initializer/random_uniform/RandomUniform"
  input: "Upsample/Deconvolution/conv2d_transpose_1/kernel/Initializer/random_uniform/sub"
  attr {
    key: "T"
    value {
      type: DT_FLOAT
    }
  }
  attr {
    key: "_class"
    value {
      list {
        s: "loc:@Upsample/Deconvolution/conv2d_transpose_1/kernel"
      }
    }
  }
}
node {
  name: "Upsample/Deconvolution/conv2d_transpose_1/kernel/Initializer/random_uniform"
  op: "Add"
  input: "Upsample/Deconvolution/conv2d_transpose_1/kernel/Initializer/random_uniform/mul"
  input: "Upsample/Deconvolution/conv2d_transpose_1/kernel/Initializer/random_uniform/min"
  attr {
    key: "T"
    value {
      type: DT_FLOAT
    }
  }
  attr {
    key: "_class"
    value {
      list {
        s: "loc:@Upsample/Deconvolution/conv2d_transpose_1/kernel"
      }
    }
  }
}
node {
  name: "Upsample/Deconvolution/conv2d_transpose_1/kernel"
  op: "VariableV2"
  attr {
    key: "_class"
    value {
      list {
        s: "loc:@Upsample/Deconvolution/conv2d_transpose_1/kernel"
      }
    }
  }
  attr {
    key: "container"
    value {
      s: ""
    }
  }
  attr {
    key: "dtype"
    value {
      type: DT_FLOAT
    }
  }
  attr {
    key: "shape"
    value {
      shape {
        dim {
          size: 1
        }
        dim {
          size: 16
        }
        dim {
          size: 128
        }
        dim {
          size: 128
        }
      }
    }
  }
  attr {
    key: "shared_name"
    value {
      s: ""
    }
  }
}
node {
  name: "Upsample/Deconvolution/conv2d_transpose_1/kernel/Assign"
  op: "Assign"
  input: "Upsample/Deconvolution/conv2d_transpose_1/kernel"
  input: "Upsample/Deconvolution/conv2d_transpose_1/kernel/Initializer/random_uniform"
  attr {
    key: "T"
    value {
      type: DT_FLOAT
    }
  }
  attr {
    key: "_class"
    value {
      list {
        s: "loc:@Upsample/Deconvolution/conv2d_transpose_1/kernel"
      }
    }
  }
  attr {
    key: "use_locking"
    value {
      b: true
    }
  }
  attr {
    key: "validate_shape"
    value {
      b: true
    }
  }
}
node {
  name: "Upsample/Deconvolution/conv2d_transpose_1/kernel/read"
  op: "Identity"
  input: "Upsample/Deconvolution/conv2d_transpose_1/kernel"
  attr {
    key: "T"
    value {
      type: DT_FLOAT
    }
  }
  attr {
    key: "_class"
    value {
      list {
        s: "loc:@Upsample/Deconvolution/conv2d_transpose_1/kernel"
      }
    }
  }
}
node {
  name: "Upsample/Deconvolution/conv2d_transpose_1/bias/Initializer/zeros"
  op: "Const"
  attr {
    key: "_class"
    value {
      list {
        s: "loc:@Upsample/Deconvolution/conv2d_transpose_1/bias"
      }
    }
  }
  attr {
    key: "dtype"
    value {
      type: DT_FLOAT
    }
  }
  attr {
    key: "value"
    value {
      tensor {
        dtype: DT_FLOAT
        tensor_shape {
          dim {
            size: 128
          }
        }
        float_val: 0.0
      }
    }
  }
}
node {
  name: "Upsample/Deconvolution/conv2d_transpose_1/bias"
  op: "VariableV2"
  attr {
    key: "_class"
    value {
      list {
        s: "loc:@Upsample/Deconvolution/conv2d_transpose_1/bias"
      }
    }
  }
  attr {
    key: "container"
    value {
      s: ""
    }
  }
  attr {
    key: "dtype"
    value {
      type: DT_FLOAT
    }
  }
  attr {
    key: "shape"
    value {
      shape {
        dim {
          size: 128
        }
      }
    }
  }
  attr {
    key: "shared_name"
    value {
      s: ""
    }
  }
}
node {
  name: "Upsample/Deconvolution/conv2d_transpose_1/bias/Assign"
  op: "Assign"
  input: "Upsample/Deconvolution/conv2d_transpose_1/bias"
  input: "Upsample/Deconvolution/conv2d_transpose_1/bias/Initializer/zeros"
  attr {
    key: "T"
    value {
      type: DT_FLOAT
    }
  }
  attr {
    key: "_class"
    value {
      list {
        s: "loc:@Upsample/Deconvolution/conv2d_transpose_1/bias"
      }
    }
  }
  attr {
    key: "use_locking"
    value {
      b: true
    }
  }
  attr {
    key: "validate_shape"
    value {
      b: true
    }
  }
}
node {
  name: "Upsample/Deconvolution/conv2d_transpose_1/bias/read"
  op: "Identity"
  input: "Upsample/Deconvolution/conv2d_transpose_1/bias"
  attr {
    key: "T"
    value {
      type: DT_FLOAT
    }
  }
  attr {
    key: "_class"
    value {
      list {
        s: "loc:@Upsample/Deconvolution/conv2d_transpose_1/bias"
      }
    }
  }
}
node {
  name: "Upsample/Deconvolution/conv2d_transpose_1/Shape"
  op: "Shape"
  input: "Upsample/Deconvolution/Relu"
  attr {
    key: "T"
    value {
      type: DT_FLOAT
    }
  }
  attr {
    key: "out_type"
    value {
      type: DT_INT32
    }
  }
}
node {
  name: "Upsample/Deconvolution/conv2d_transpose_1/strided_slice/stack"
  op: "Const"
  attr {
    key: "dtype"
    value {
      type: DT_INT32
    }
  }
  attr {
    key: "value"
    value {
      tensor {
        dtype: DT_INT32
        tensor_shape {
          dim {
            size: 1
          }
        }
        int_val: 0
      }
    }
  }
}
node {
  name: "Upsample/Deconvolution/conv2d_transpose_1/strided_slice/stack_1"
  op: "Const"
  attr {
    key: "dtype"
    value {
      type: DT_INT32
    }
  }
  attr {
    key: "value"
    value {
      tensor {
        dtype: DT_INT32
        tensor_shape {
          dim {
            size: 1
          }
        }
        int_val: 1
      }
    }
  }
}
node {
  name: "Upsample/Deconvolution/conv2d_transpose_1/strided_slice/stack_2"
  op: "Const"
  attr {
    key: "dtype"
    value {
      type: DT_INT32
    }
  }
  attr {
    key: "value"
    value {
      tensor {
        dtype: DT_INT32
        tensor_shape {
          dim {
            size: 1
          }
        }
        int_val: 1
      }
    }
  }
}
node {
  name: "Upsample/Deconvolution/conv2d_transpose_1/strided_slice"
  op: "StridedSlice"
  input: "Upsample/Deconvolution/conv2d_transpose_1/Shape"
  input: "Upsample/Deconvolution/conv2d_transpose_1/strided_slice/stack"
  input: "Upsample/Deconvolution/conv2d_transpose_1/strided_slice/stack_1"
  input: "Upsample/Deconvolution/conv2d_transpose_1/strided_slice/stack_2"
  attr {
    key: "Index"
    value {
      type: DT_INT32
    }
  }
  attr {
    key: "T"
    value {
      type: DT_INT32
    }
  }
  attr {
    key: "begin_mask"
    value {
      i: 0
    }
  }
  attr {
    key: "ellipsis_mask"
    value {
      i: 0
    }
  }
  attr {
    key: "end_mask"
    value {
      i: 0
    }
  }
  attr {
    key: "new_axis_mask"
    value {
      i: 0
    }
  }
  attr {
    key: "shrink_axis_mask"
    value {
      i: 1
    }
  }
}
node {
  name: "Upsample/Deconvolution/conv2d_transpose_1/strided_slice_1/stack"
  op: "Const"
  attr {
    key: "dtype"
    value {
      type: DT_INT32
    }
  }
  attr {
    key: "value"
    value {
      tensor {
        dtype: DT_INT32
        tensor_shape {
          dim {
            size: 1
          }
        }
        int_val: 1
      }
    }
  }
}
node {
  name: "Upsample/Deconvolution/conv2d_transpose_1/strided_slice_1/stack_1"
  op: "Const"
  attr {
    key: "dtype"
    value {
      type: DT_INT32
    }
  }
  attr {
    key: "value"
    value {
      tensor {
        dtype: DT_INT32
        tensor_shape {
          dim {
            size: 1
          }
        }
        int_val: 2
      }
    }
  }
}
node {
  name: "Upsample/Deconvolution/conv2d_transpose_1/strided_slice_1/stack_2"
  op: "Const"
  attr {
    key: "dtype"
    value {
      type: DT_INT32
    }
  }
  attr {
    key: "value"
    value {
      tensor {
        dtype: DT_INT32
        tensor_shape {
          dim {
            size: 1
          }
        }
        int_val: 1
      }
    }
  }
}
node {
  name: "Upsample/Deconvolution/conv2d_transpose_1/strided_slice_1"
  op: "StridedSlice"
  input: "Upsample/Deconvolution/conv2d_transpose_1/Shape"
  input: "Upsample/Deconvolution/conv2d_transpose_1/strided_slice_1/stack"
  input: "Upsample/Deconvolution/conv2d_transpose_1/strided_slice_1/stack_1"
  input: "Upsample/Deconvolution/conv2d_transpose_1/strided_slice_1/stack_2"
  attr {
    key: "Index"
    value {
      type: DT_INT32
    }
  }
  attr {
    key: "T"
    value {
      type: DT_INT32
    }
  }
  attr {
    key: "begin_mask"
    value {
      i: 0
    }
  }
  attr {
    key: "ellipsis_mask"
    value {
      i: 0
    }
  }
  attr {
    key: "end_mask"
    value {
      i: 0
    }
  }
  attr {
    key: "new_axis_mask"
    value {
      i: 0
    }
  }
  attr {
    key: "shrink_axis_mask"
    value {
      i: 1
    }
  }
}
node {
  name: "Upsample/Deconvolution/conv2d_transpose_1/strided_slice_2/stack"
  op: "Const"
  attr {
    key: "dtype"
    value {
      type: DT_INT32
    }
  }
  attr {
    key: "value"
    value {
      tensor {
        dtype: DT_INT32
        tensor_shape {
          dim {
            size: 1
          }
        }
        int_val: 2
      }
    }
  }
}
node {
  name: "Upsample/Deconvolution/conv2d_transpose_1/strided_slice_2/stack_1"
  op: "Const"
  attr {
    key: "dtype"
    value {
      type: DT_INT32
    }
  }
  attr {
    key: "value"
    value {
      tensor {
        dtype: DT_INT32
        tensor_shape {
          dim {
            size: 1
          }
        }
        int_val: 3
      }
    }
  }
}
node {
  name: "Upsample/Deconvolution/conv2d_transpose_1/strided_slice_2/stack_2"
  op: "Const"
  attr {
    key: "dtype"
    value {
      type: DT_INT32
    }
  }
  attr {
    key: "value"
    value {
      tensor {
        dtype: DT_INT32
        tensor_shape {
          dim {
            size: 1
          }
        }
        int_val: 1
      }
    }
  }
}
node {
  name: "Upsample/Deconvolution/conv2d_transpose_1/strided_slice_2"
  op: "StridedSlice"
  input: "Upsample/Deconvolution/conv2d_transpose_1/Shape"
  input: "Upsample/Deconvolution/conv2d_transpose_1/strided_slice_2/stack"
  input: "Upsample/Deconvolution/conv2d_transpose_1/strided_slice_2/stack_1"
  input: "Upsample/Deconvolution/conv2d_transpose_1/strided_slice_2/stack_2"
  attr {
    key: "Index"
    value {
      type: DT_INT32
    }
  }
  attr {
    key: "T"
    value {
      type: DT_INT32
    }
  }
  attr {
    key: "begin_mask"
    value {
      i: 0
    }
  }
  attr {
    key: "ellipsis_mask"
    value {
      i: 0
    }
  }
  attr {
    key: "end_mask"
    value {
      i: 0
    }
  }
  attr {
    key: "new_axis_mask"
    value {
      i: 0
    }
  }
  attr {
    key: "shrink_axis_mask"
    value {
      i: 1
    }
  }
}
node {
  name: "Upsample/Deconvolution/conv2d_transpose_1/mul/y"
  op: "Const"
  attr {
    key: "dtype"
    value {
      type: DT_INT32
    }
  }
  attr {
    key: "value"
    value {
      tensor {
        dtype: DT_INT32
        tensor_shape {
        }
        int_val: 1
      }
    }
  }
}
node {
  name: "Upsample/Deconvolution/conv2d_transpose_1/mul"
  op: "Mul"
  input: "Upsample/Deconvolution/conv2d_transpose_1/strided_slice_1"
  input: "Upsample/Deconvolution/conv2d_transpose_1/mul/y"
  attr {
    key: "T"
    value {
      type: DT_INT32
    }
  }
}
node {
  name: "Upsample/Deconvolution/conv2d_transpose_1/add/y"
  op: "Const"
  attr {
    key: "dtype"
    value {
      type: DT_INT32
    }
  }
  attr {
    key: "value"
    value {
      tensor {
        dtype: DT_INT32
        tensor_shape {
        }
        int_val: 0
      }
    }
  }
}
node {
  name: "Upsample/Deconvolution/conv2d_transpose_1/add"
  op: "Add"
  input: "Upsample/Deconvolution/conv2d_transpose_1/mul"
  input: "Upsample/Deconvolution/conv2d_transpose_1/add/y"
  attr {
    key: "T"
    value {
      type: DT_INT32
    }
  }
}
node {
  name: "Upsample/Deconvolution/conv2d_transpose_1/mul_1/y"
  op: "Const"
  attr {
    key: "dtype"
    value {
      type: DT_INT32
    }
  }
  attr {
    key: "value"
    value {
      tensor {
        dtype: DT_INT32
        tensor_shape {
        }
        int_val: 16
      }
    }
  }
}
node {
  name: "Upsample/Deconvolution/conv2d_transpose_1/mul_1"
  op: "Mul"
  input: "Upsample/Deconvolution/conv2d_transpose_1/strided_slice_2"
  input: "Upsample/Deconvolution/conv2d_transpose_1/mul_1/y"
  attr {
    key: "T"
    value {
      type: DT_INT32
    }
  }
}
node {
  name: "Upsample/Deconvolution/conv2d_transpose_1/add_1/y"
  op: "Const"
  attr {
    key: "dtype"
    value {
      type: DT_INT32
    }
  }
  attr {
    key: "value"
    value {
      tensor {
        dtype: DT_INT32
        tensor_shape {
        }
        int_val: 0
      }
    }
  }
}
node {
  name: "Upsample/Deconvolution/conv2d_transpose_1/add_1"
  op: "Add"
  input: "Upsample/Deconvolution/conv2d_transpose_1/mul_1"
  input: "Upsample/Deconvolution/conv2d_transpose_1/add_1/y"
  attr {
    key: "T"
    value {
      type: DT_INT32
    }
  }
}
node {
  name: "Upsample/Deconvolution/conv2d_transpose_1/stack/3"
  op: "Const"
  attr {
    key: "dtype"
    value {
      type: DT_INT32
    }
  }
  attr {
    key: "value"
    value {
      tensor {
        dtype: DT_INT32
        tensor_shape {
        }
        int_val: 128
      }
    }
  }
}
node {
  name: "Upsample/Deconvolution/conv2d_transpose_1/stack"
  op: "Pack"
  input: "Upsample/Deconvolution/conv2d_transpose_1/strided_slice"
  input: "Upsample/Deconvolution/conv2d_transpose_1/add"
  input: "Upsample/Deconvolution/conv2d_transpose_1/add_1"
  input: "Upsample/Deconvolution/conv2d_transpose_1/stack/3"
  attr {
    key: "N"
    value {
      i: 4
    }
  }
  attr {
    key: "T"
    value {
      type: DT_INT32
    }
  }
  attr {
    key: "axis"
    value {
      i: 0
    }
  }
}
node {
  name: "Upsample/Deconvolution/conv2d_transpose_1/conv2d_transpose"
  op: "Conv2DBackpropInput"
  input: "Upsample/Deconvolution/conv2d_transpose_1/stack"
  input: "Upsample/Deconvolution/conv2d_transpose_1/kernel/read"
  input: "Upsample/Deconvolution/Relu"
  attr {
    key: "T"
    value {
      type: DT_FLOAT
    }
  }
  attr {
    key: "data_format"
    value {
      s: "NHWC"
    }
  }
  attr {
    key: "dilations"
    value {
      list {
        i: 1
        i: 1
        i: 1
        i: 1
      }
    }
  }
  attr {
    key: "padding"
    value {
      s: "VALID"
    }
  }
  attr {
    key: "strides"
    value {
      list {
        i: 1
        i: 1
        i: 16
        i: 1
      }
    }
  }
  attr {
    key: "use_cudnn_on_gpu"
    value {
      b: true
    }
  }
}
node {
  name: "Upsample/Deconvolution/conv2d_transpose_1/BiasAdd"
  op: "BiasAdd"
  input: "Upsample/Deconvolution/conv2d_transpose_1/conv2d_transpose"
  input: "Upsample/Deconvolution/conv2d_transpose_1/bias/read"
  attr {
    key: "T"
    value {
      type: DT_FLOAT
    }
  }
  attr {
    key: "data_format"
    value {
      s: "NHWC"
    }
  }
}
node {
  name: "Upsample/Deconvolution/Relu_1"
  op: "Relu"
  input: "Upsample/Deconvolution/conv2d_transpose_1/BiasAdd"
  attr {
    key: "T"
    value {
      type: DT_FLOAT
    }
  }
}
node {
  name: "Upsample/Deconvolution/Squeeze"
  op: "Squeeze"
  input: "Upsample/Deconvolution/Relu_1"
  attr {
    key: "T"
    value {
      type: DT_FLOAT
    }
  }
  attr {
    key: "squeeze_dims"
    value {
      list {
        i: 1
      }
    }
  }
}
node {
  name: "Upsample/Encode_feature/conv1d/kernel/Initializer/random_uniform/shape"
  op: "Const"
  attr {
    key: "_class"
    value {
      list {
        s: "loc:@Upsample/Encode_feature/conv1d/kernel"
      }
    }
  }
  attr {
    key: "dtype"
    value {
      type: DT_INT32
    }
  }
  attr {
    key: "value"
    value {
      tensor {
        dtype: DT_INT32
        tensor_shape {
          dim {
            size: 3
          }
        }
        tensor_content: "\001\000\000\000\200\000\000\000\200\000\000\000"
      }
    }
  }
}
node {
  name: "Upsample/Encode_feature/conv1d/kernel/Initializer/random_uniform/min"
  op: "Const"
  attr {
    key: "_class"
    value {
      list {
        s: "loc:@Upsample/Encode_feature/conv1d/kernel"
      }
    }
  }
  attr {
    key: "dtype"
    value {
      type: DT_FLOAT
    }
  }
  attr {
    key: "value"
    value {
      tensor {
        dtype: DT_FLOAT
        tensor_shape {
        }
        float_val: -0.1530931144952774
      }
    }
  }
}
node {
  name: "Upsample/Encode_feature/conv1d/kernel/Initializer/random_uniform/max"
  op: "Const"
  attr {
    key: "_class"
    value {
      list {
        s: "loc:@Upsample/Encode_feature/conv1d/kernel"
      }
    }
  }
  attr {
    key: "dtype"
    value {
      type: DT_FLOAT
    }
  }
  attr {
    key: "value"
    value {
      tensor {
        dtype: DT_FLOAT
        tensor_shape {
        }
        float_val: 0.1530931144952774
      }
    }
  }
}
node {
  name: "Upsample/Encode_feature/conv1d/kernel/Initializer/random_uniform/RandomUniform"
  op: "RandomUniform"
  input: "Upsample/Encode_feature/conv1d/kernel/Initializer/random_uniform/shape"
  attr {
    key: "T"
    value {
      type: DT_INT32
    }
  }
  attr {
    key: "_class"
    value {
      list {
        s: "loc:@Upsample/Encode_feature/conv1d/kernel"
      }
    }
  }
  attr {
    key: "dtype"
    value {
      type: DT_FLOAT
    }
  }
  attr {
    key: "seed"
    value {
      i: 0
    }
  }
  attr {
    key: "seed2"
    value {
      i: 0
    }
  }
}
node {
  name: "Upsample/Encode_feature/conv1d/kernel/Initializer/random_uniform/sub"
  op: "Sub"
  input: "Upsample/Encode_feature/conv1d/kernel/Initializer/random_uniform/max"
  input: "Upsample/Encode_feature/conv1d/kernel/Initializer/random_uniform/min"
  attr {
    key: "T"
    value {
      type: DT_FLOAT
    }
  }
  attr {
    key: "_class"
    value {
      list {
        s: "loc:@Upsample/Encode_feature/conv1d/kernel"
      }
    }
  }
}
node {
  name: "Upsample/Encode_feature/conv1d/kernel/Initializer/random_uniform/mul"
  op: "Mul"
  input: "Upsample/Encode_feature/conv1d/kernel/Initializer/random_uniform/RandomUniform"
  input: "Upsample/Encode_feature/conv1d/kernel/Initializer/random_uniform/sub"
  attr {
    key: "T"
    value {
      type: DT_FLOAT
    }
  }
  attr {
    key: "_class"
    value {
      list {
        s: "loc:@Upsample/Encode_feature/conv1d/kernel"
      }
    }
  }
}
node {
  name: "Upsample/Encode_feature/conv1d/kernel/Initializer/random_uniform"
  op: "Add"
  input: "Upsample/Encode_feature/conv1d/kernel/Initializer/random_uniform/mul"
  input: "Upsample/Encode_feature/conv1d/kernel/Initializer/random_uniform/min"
  attr {
    key: "T"
    value {
      type: DT_FLOAT
    }
  }
  attr {
    key: "_class"
    value {
      list {
        s: "loc:@Upsample/Encode_feature/conv1d/kernel"
      }
    }
  }
}
node {
  name: "Upsample/Encode_feature/conv1d/kernel"
  op: "VariableV2"
  attr {
    key: "_class"
    value {
      list {
        s: "loc:@Upsample/Encode_feature/conv1d/kernel"
      }
    }
  }
  attr {
    key: "container"
    value {
      s: ""
    }
  }
  attr {
    key: "dtype"
    value {
      type: DT_FLOAT
    }
  }
  attr {
    key: "shape"
    value {
      shape {
        dim {
          size: 1
        }
        dim {
          size: 128
        }
        dim {
          size: 128
        }
      }
    }
  }
  attr {
    key: "shared_name"
    value {
      s: ""
    }
  }
}
node {
  name: "Upsample/Encode_feature/conv1d/kernel/Assign"
  op: "Assign"
  input: "Upsample/Encode_feature/conv1d/kernel"
  input: "Upsample/Encode_feature/conv1d/kernel/Initializer/random_uniform"
  attr {
    key: "T"
    value {
      type: DT_FLOAT
    }
  }
  attr {
    key: "_class"
    value {
      list {
        s: "loc:@Upsample/Encode_feature/conv1d/kernel"
      }
    }
  }
  attr {
    key: "use_locking"
    value {
      b: true
    }
  }
  attr {
    key: "validate_shape"
    value {
      b: true
    }
  }
}
node {
  name: "Upsample/Encode_feature/conv1d/kernel/read"
  op: "Identity"
  input: "Upsample/Encode_feature/conv1d/kernel"
  attr {
    key: "T"
    value {
      type: DT_FLOAT
    }
  }
  attr {
    key: "_class"
    value {
      list {
        s: "loc:@Upsample/Encode_feature/conv1d/kernel"
      }
    }
  }
}
node {
  name: "Upsample/Encode_feature/conv1d/bias/Initializer/zeros"
  op: "Const"
  attr {
    key: "_class"
    value {
      list {
        s: "loc:@Upsample/Encode_feature/conv1d/bias"
      }
    }
  }
  attr {
    key: "dtype"
    value {
      type: DT_FLOAT
    }
  }
  attr {
    key: "value"
    value {
      tensor {
        dtype: DT_FLOAT
        tensor_shape {
          dim {
            size: 128
          }
        }
        float_val: 0.0
      }
    }
  }
}
node {
  name: "Upsample/Encode_feature/conv1d/bias"
  op: "VariableV2"
  attr {
    key: "_class"
    value {
      list {
        s: "loc:@Upsample/Encode_feature/conv1d/bias"
      }
    }
  }
  attr {
    key: "container"
    value {
      s: ""
    }
  }
  attr {
    key: "dtype"
    value {
      type: DT_FLOAT
    }
  }
  attr {
    key: "shape"
    value {
      shape {
        dim {
          size: 128
        }
      }
    }
  }
  attr {
    key: "shared_name"
    value {
      s: ""
    }
  }
}
node {
  name: "Upsample/Encode_feature/conv1d/bias/Assign"
  op: "Assign"
  input: "Upsample/Encode_feature/conv1d/bias"
  input: "Upsample/Encode_feature/conv1d/bias/Initializer/zeros"
  attr {
    key: "T"
    value {
      type: DT_FLOAT
    }
  }
  attr {
    key: "_class"
    value {
      list {
        s: "loc:@Upsample/Encode_feature/conv1d/bias"
      }
    }
  }
  attr {
    key: "use_locking"
    value {
      b: true
    }
  }
  attr {
    key: "validate_shape"
    value {
      b: true
    }
  }
}
node {
  name: "Upsample/Encode_feature/conv1d/bias/read"
  op: "Identity"
  input: "Upsample/Encode_feature/conv1d/bias"
  attr {
    key: "T"
    value {
      type: DT_FLOAT
    }
  }
  attr {
    key: "_class"
    value {
      list {
        s: "loc:@Upsample/Encode_feature/conv1d/bias"
      }
    }
  }
}
node {
  name: "Upsample/Encode_feature/conv1d/dilation_rate"
  op: "Const"
  attr {
    key: "dtype"
    value {
      type: DT_INT32
    }
  }
  attr {
    key: "value"
    value {
      tensor {
        dtype: DT_INT32
        tensor_shape {
          dim {
            size: 1
          }
        }
        int_val: 1
      }
    }
  }
}
node {
  name: "Upsample/Encode_feature/conv1d/conv1d/ExpandDims/dim"
  op: "Const"
  attr {
    key: "dtype"
    value {
      type: DT_INT32
    }
  }
  attr {
    key: "value"
    value {
      tensor {
        dtype: DT_INT32
        tensor_shape {
        }
        int_val: 1
      }
    }
  }
}
node {
  name: "Upsample/Encode_feature/conv1d/conv1d/ExpandDims"
  op: "ExpandDims"
  input: "Upsample/Deconvolution/Squeeze"
  input: "Upsample/Encode_feature/conv1d/conv1d/ExpandDims/dim"
  attr {
    key: "T"
    value {
      type: DT_FLOAT
    }
  }
  attr {
    key: "Tdim"
    value {
      type: DT_INT32
    }
  }
}
node {
  name: "Upsample/Encode_feature/conv1d/conv1d/ExpandDims_1/dim"
  op: "Const"
  attr {
    key: "dtype"
    value {
      type: DT_INT32
    }
  }
  attr {
    key: "value"
    value {
      tensor {
        dtype: DT_INT32
        tensor_shape {
        }
        int_val: 0
      }
    }
  }
}
node {
  name: "Upsample/Encode_feature/conv1d/conv1d/ExpandDims_1"
  op: "ExpandDims"
  input: "Upsample/Encode_feature/conv1d/kernel/read"
  input: "Upsample/Encode_feature/conv1d/conv1d/ExpandDims_1/dim"
  attr {
    key: "T"
    value {
      type: DT_FLOAT
    }
  }
  attr {
    key: "Tdim"
    value {
      type: DT_INT32
    }
  }
}
node {
  name: "Upsample/Encode_feature/conv1d/conv1d/Conv2D"
  op: "Conv2D"
  input: "Upsample/Encode_feature/conv1d/conv1d/ExpandDims"
  input: "Upsample/Encode_feature/conv1d/conv1d/ExpandDims_1"
  attr {
    key: "T"
    value {
      type: DT_FLOAT
    }
  }
  attr {
    key: "data_format"
    value {
      s: "NHWC"
    }
  }
  attr {
    key: "dilations"
    value {
      list {
        i: 1
        i: 1
        i: 1
        i: 1
      }
    }
  }
  attr {
    key: "padding"
    value {
      s: "VALID"
    }
  }
  attr {
    key: "strides"
    value {
      list {
        i: 1
        i: 1
        i: 1
        i: 1
      }
    }
  }
  attr {
    key: "use_cudnn_on_gpu"
    value {
      b: true
    }
  }
}
node {
  name: "Upsample/Encode_feature/conv1d/conv1d/Squeeze"
  op: "Squeeze"
  input: "Upsample/Encode_feature/conv1d/conv1d/Conv2D"
  attr {
    key: "T"
    value {
      type: DT_FLOAT
    }
  }
  attr {
    key: "squeeze_dims"
    value {
      list {
        i: 1
      }
    }
  }
}
node {
  name: "Upsample/Encode_feature/conv1d/BiasAdd"
  op: "BiasAdd"
  input: "Upsample/Encode_feature/conv1d/conv1d/Squeeze"
  input: "Upsample/Encode_feature/conv1d/bias/read"
  attr {
    key: "T"
    value {
      type: DT_FLOAT
    }
  }
  attr {
    key: "data_format"
    value {
      s: "NHWC"
    }
  }
}
node {
  name: "Upsample/Encode_feature/conv1d_1/kernel/Initializer/random_uniform/shape"
  op: "Const"
  attr {
    key: "_class"
    value {
      list {
        s: "loc:@Upsample/Encode_feature/conv1d_1/kernel"
      }
    }
  }
  attr {
    key: "dtype"
    value {
      type: DT_INT32
    }
  }
  attr {
    key: "value"
    value {
      tensor {
        dtype: DT_INT32
        tensor_shape {
          dim {
            size: 3
          }
        }
        tensor_content: "\001\000\000\000\200\000\000\000\200\000\000\000"
      }
    }
  }
}
node {
  name: "Upsample/Encode_feature/conv1d_1/kernel/Initializer/random_uniform/min"
  op: "Const"
  attr {
    key: "_class"
    value {
      list {
        s: "loc:@Upsample/Encode_feature/conv1d_1/kernel"
      }
    }
  }
  attr {
    key: "dtype"
    value {
      type: DT_FLOAT
    }
  }
  attr {
    key: "value"
    value {
      tensor {
        dtype: DT_FLOAT
        tensor_shape {
        }
        float_val: -0.1530931144952774
      }
    }
  }
}
node {
  name: "Upsample/Encode_feature/conv1d_1/kernel/Initializer/random_uniform/max"
  op: "Const"
  attr {
    key: "_class"
    value {
      list {
        s: "loc:@Upsample/Encode_feature/conv1d_1/kernel"
      }
    }
  }
  attr {
    key: "dtype"
    value {
      type: DT_FLOAT
    }
  }
  attr {
    key: "value"
    value {
      tensor {
        dtype: DT_FLOAT
        tensor_shape {
        }
        float_val: 0.1530931144952774
      }
    }
  }
}
node {
  name: "Upsample/Encode_feature/conv1d_1/kernel/Initializer/random_uniform/RandomUniform"
  op: "RandomUniform"
  input: "Upsample/Encode_feature/conv1d_1/kernel/Initializer/random_uniform/shape"
  attr {
    key: "T"
    value {
      type: DT_INT32
    }
  }
  attr {
    key: "_class"
    value {
      list {
        s: "loc:@Upsample/Encode_feature/conv1d_1/kernel"
      }
    }
  }
  attr {
    key: "dtype"
    value {
      type: DT_FLOAT
    }
  }
  attr {
    key: "seed"
    value {
      i: 0
    }
  }
  attr {
    key: "seed2"
    value {
      i: 0
    }
  }
}
node {
  name: "Upsample/Encode_feature/conv1d_1/kernel/Initializer/random_uniform/sub"
  op: "Sub"
  input: "Upsample/Encode_feature/conv1d_1/kernel/Initializer/random_uniform/max"
  input: "Upsample/Encode_feature/conv1d_1/kernel/Initializer/random_uniform/min"
  attr {
    key: "T"
    value {
      type: DT_FLOAT
    }
  }
  attr {
    key: "_class"
    value {
      list {
        s: "loc:@Upsample/Encode_feature/conv1d_1/kernel"
      }
    }
  }
}
node {
  name: "Upsample/Encode_feature/conv1d_1/kernel/Initializer/random_uniform/mul"
  op: "Mul"
  input: "Upsample/Encode_feature/conv1d_1/kernel/Initializer/random_uniform/RandomUniform"
  input: "Upsample/Encode_feature/conv1d_1/kernel/Initializer/random_uniform/sub"
  attr {
    key: "T"
    value {
      type: DT_FLOAT
    }
  }
  attr {
    key: "_class"
    value {
      list {
        s: "loc:@Upsample/Encode_feature/conv1d_1/kernel"
      }
    }
  }
}
node {
  name: "Upsample/Encode_feature/conv1d_1/kernel/Initializer/random_uniform"
  op: "Add"
  input: "Upsample/Encode_feature/conv1d_1/kernel/Initializer/random_uniform/mul"
  input: "Upsample/Encode_feature/conv1d_1/kernel/Initializer/random_uniform/min"
  attr {
    key: "T"
    value {
      type: DT_FLOAT
    }
  }
  attr {
    key: "_class"
    value {
      list {
        s: "loc:@Upsample/Encode_feature/conv1d_1/kernel"
      }
    }
  }
}
node {
  name: "Upsample/Encode_feature/conv1d_1/kernel"
  op: "VariableV2"
  attr {
    key: "_class"
    value {
      list {
        s: "loc:@Upsample/Encode_feature/conv1d_1/kernel"
      }
    }
  }
  attr {
    key: "container"
    value {
      s: ""
    }
  }
  attr {
    key: "dtype"
    value {
      type: DT_FLOAT
    }
  }
  attr {
    key: "shape"
    value {
      shape {
        dim {
          size: 1
        }
        dim {
          size: 128
        }
        dim {
          size: 128
        }
      }
    }
  }
  attr {
    key: "shared_name"
    value {
      s: ""
    }
  }
}
node {
  name: "Upsample/Encode_feature/conv1d_1/kernel/Assign"
  op: "Assign"
  input: "Upsample/Encode_feature/conv1d_1/kernel"
  input: "Upsample/Encode_feature/conv1d_1/kernel/Initializer/random_uniform"
  attr {
    key: "T"
    value {
      type: DT_FLOAT
    }
  }
  attr {
    key: "_class"
    value {
      list {
        s: "loc:@Upsample/Encode_feature/conv1d_1/kernel"
      }
    }
  }
  attr {
    key: "use_locking"
    value {
      b: true
    }
  }
  attr {
    key: "validate_shape"
    value {
      b: true
    }
  }
}
node {
  name: "Upsample/Encode_feature/conv1d_1/kernel/read"
  op: "Identity"
  input: "Upsample/Encode_feature/conv1d_1/kernel"
  attr {
    key: "T"
    value {
      type: DT_FLOAT
    }
  }
  attr {
    key: "_class"
    value {
      list {
        s: "loc:@Upsample/Encode_feature/conv1d_1/kernel"
      }
    }
  }
}
node {
  name: "Upsample/Encode_feature/conv1d_1/bias/Initializer/zeros"
  op: "Const"
  attr {
    key: "_class"
    value {
      list {
        s: "loc:@Upsample/Encode_feature/conv1d_1/bias"
      }
    }
  }
  attr {
    key: "dtype"
    value {
      type: DT_FLOAT
    }
  }
  attr {
    key: "value"
    value {
      tensor {
        dtype: DT_FLOAT
        tensor_shape {
          dim {
            size: 128
          }
        }
        float_val: 0.0
      }
    }
  }
}
node {
  name: "Upsample/Encode_feature/conv1d_1/bias"
  op: "VariableV2"
  attr {
    key: "_class"
    value {
      list {
        s: "loc:@Upsample/Encode_feature/conv1d_1/bias"
      }
    }
  }
  attr {
    key: "container"
    value {
      s: ""
    }
  }
  attr {
    key: "dtype"
    value {
      type: DT_FLOAT
    }
  }
  attr {
    key: "shape"
    value {
      shape {
        dim {
          size: 128
        }
      }
    }
  }
  attr {
    key: "shared_name"
    value {
      s: ""
    }
  }
}
node {
  name: "Upsample/Encode_feature/conv1d_1/bias/Assign"
  op: "Assign"
  input: "Upsample/Encode_feature/conv1d_1/bias"
  input: "Upsample/Encode_feature/conv1d_1/bias/Initializer/zeros"
  attr {
    key: "T"
    value {
      type: DT_FLOAT
    }
  }
  attr {
    key: "_class"
    value {
      list {
        s: "loc:@Upsample/Encode_feature/conv1d_1/bias"
      }
    }
  }
  attr {
    key: "use_locking"
    value {
      b: true
    }
  }
  attr {
    key: "validate_shape"
    value {
      b: true
    }
  }
}
node {
  name: "Upsample/Encode_feature/conv1d_1/bias/read"
  op: "Identity"
  input: "Upsample/Encode_feature/conv1d_1/bias"
  attr {
    key: "T"
    value {
      type: DT_FLOAT
    }
  }
  attr {
    key: "_class"
    value {
      list {
        s: "loc:@Upsample/Encode_feature/conv1d_1/bias"
      }
    }
  }
}
node {
  name: "Upsample/Encode_feature/conv1d_1/dilation_rate"
  op: "Const"
  attr {
    key: "dtype"
    value {
      type: DT_INT32
    }
  }
  attr {
    key: "value"
    value {
      tensor {
        dtype: DT_INT32
        tensor_shape {
          dim {
            size: 1
          }
        }
        int_val: 1
      }
    }
  }
}
node {
  name: "Upsample/Encode_feature/conv1d_1/conv1d/ExpandDims/dim"
  op: "Const"
  attr {
    key: "dtype"
    value {
      type: DT_INT32
    }
  }
  attr {
    key: "value"
    value {
      tensor {
        dtype: DT_INT32
        tensor_shape {
        }
        int_val: 1
      }
    }
  }
}
node {
  name: "Upsample/Encode_feature/conv1d_1/conv1d/ExpandDims"
  op: "ExpandDims"
  input: "Upsample/Deconvolution/Squeeze"
  input: "Upsample/Encode_feature/conv1d_1/conv1d/ExpandDims/dim"
  attr {
    key: "T"
    value {
      type: DT_FLOAT
    }
  }
  attr {
    key: "Tdim"
    value {
      type: DT_INT32
    }
  }
}
node {
  name: "Upsample/Encode_feature/conv1d_1/conv1d/ExpandDims_1/dim"
  op: "Const"
  attr {
    key: "dtype"
    value {
      type: DT_INT32
    }
  }
  attr {
    key: "value"
    value {
      tensor {
        dtype: DT_INT32
        tensor_shape {
        }
        int_val: 0
      }
    }
  }
}
node {
  name: "Upsample/Encode_feature/conv1d_1/conv1d/ExpandDims_1"
  op: "ExpandDims"
  input: "Upsample/Encode_feature/conv1d_1/kernel/read"
  input: "Upsample/Encode_feature/conv1d_1/conv1d/ExpandDims_1/dim"
  attr {
    key: "T"
    value {
      type: DT_FLOAT
    }
  }
  attr {
    key: "Tdim"
    value {
      type: DT_INT32
    }
  }
}
node {
  name: "Upsample/Encode_feature/conv1d_1/conv1d/Conv2D"
  op: "Conv2D"
  input: "Upsample/Encode_feature/conv1d_1/conv1d/ExpandDims"
  input: "Upsample/Encode_feature/conv1d_1/conv1d/ExpandDims_1"
  attr {
    key: "T"
    value {
      type: DT_FLOAT
    }
  }
  attr {
    key: "data_format"
    value {
      s: "NHWC"
    }
  }
  attr {
    key: "dilations"
    value {
      list {
        i: 1
        i: 1
        i: 1
        i: 1
      }
    }
  }
  attr {
    key: "padding"
    value {
      s: "VALID"
    }
  }
  attr {
    key: "strides"
    value {
      list {
        i: 1
        i: 1
        i: 1
        i: 1
      }
    }
  }
  attr {
    key: "use_cudnn_on_gpu"
    value {
      b: true
    }
  }
}
node {
  name: "Upsample/Encode_feature/conv1d_1/conv1d/Squeeze"
  op: "Squeeze"
  input: "Upsample/Encode_feature/conv1d_1/conv1d/Conv2D"
  attr {
    key: "T"
    value {
      type: DT_FLOAT
    }
  }
  attr {
    key: "squeeze_dims"
    value {
      list {
        i: 1
      }
    }
  }
}
node {
  name: "Upsample/Encode_feature/conv1d_1/BiasAdd"
  op: "BiasAdd"
  input: "Upsample/Encode_feature/conv1d_1/conv1d/Squeeze"
  input: "Upsample/Encode_feature/conv1d_1/bias/read"
  attr {
    key: "T"
    value {
      type: DT_FLOAT
    }
  }
  attr {
    key: "data_format"
    value {
      s: "NHWC"
    }
  }
}
node {
  name: "Upsample/Encode_feature/conv1d_2/kernel/Initializer/random_uniform/shape"
  op: "Const"
  attr {
    key: "_class"
    value {
      list {
        s: "loc:@Upsample/Encode_feature/conv1d_2/kernel"
      }
    }
  }
  attr {
    key: "dtype"
    value {
      type: DT_INT32
    }
  }
  attr {
    key: "value"
    value {
      tensor {
        dtype: DT_INT32
        tensor_shape {
          dim {
            size: 3
          }
        }
        tensor_content: "\001\000\000\000\200\000\000\000\200\000\000\000"
      }
    }
  }
}
node {
  name: "Upsample/Encode_feature/conv1d_2/kernel/Initializer/random_uniform/min"
  op: "Const"
  attr {
    key: "_class"
    value {
      list {
        s: "loc:@Upsample/Encode_feature/conv1d_2/kernel"
      }
    }
  }
  attr {
    key: "dtype"
    value {
      type: DT_FLOAT
    }
  }
  attr {
    key: "value"
    value {
      tensor {
        dtype: DT_FLOAT
        tensor_shape {
        }
        float_val: -0.1530931144952774
      }
    }
  }
}
node {
  name: "Upsample/Encode_feature/conv1d_2/kernel/Initializer/random_uniform/max"
  op: "Const"
  attr {
    key: "_class"
    value {
      list {
        s: "loc:@Upsample/Encode_feature/conv1d_2/kernel"
      }
    }
  }
  attr {
    key: "dtype"
    value {
      type: DT_FLOAT
    }
  }
  attr {
    key: "value"
    value {
      tensor {
        dtype: DT_FLOAT
        tensor_shape {
        }
        float_val: 0.1530931144952774
      }
    }
  }
}
node {
  name: "Upsample/Encode_feature/conv1d_2/kernel/Initializer/random_uniform/RandomUniform"
  op: "RandomUniform"
  input: "Upsample/Encode_feature/conv1d_2/kernel/Initializer/random_uniform/shape"
  attr {
    key: "T"
    value {
      type: DT_INT32
    }
  }
  attr {
    key: "_class"
    value {
      list {
        s: "loc:@Upsample/Encode_feature/conv1d_2/kernel"
      }
    }
  }
  attr {
    key: "dtype"
    value {
      type: DT_FLOAT
    }
  }
  attr {
    key: "seed"
    value {
      i: 0
    }
  }
  attr {
    key: "seed2"
    value {
      i: 0
    }
  }
}
node {
  name: "Upsample/Encode_feature/conv1d_2/kernel/Initializer/random_uniform/sub"
  op: "Sub"
  input: "Upsample/Encode_feature/conv1d_2/kernel/Initializer/random_uniform/max"
  input: "Upsample/Encode_feature/conv1d_2/kernel/Initializer/random_uniform/min"
  attr {
    key: "T"
    value {
      type: DT_FLOAT
    }
  }
  attr {
    key: "_class"
    value {
      list {
        s: "loc:@Upsample/Encode_feature/conv1d_2/kernel"
      }
    }
  }
}
node {
  name: "Upsample/Encode_feature/conv1d_2/kernel/Initializer/random_uniform/mul"
  op: "Mul"
  input: "Upsample/Encode_feature/conv1d_2/kernel/Initializer/random_uniform/RandomUniform"
  input: "Upsample/Encode_feature/conv1d_2/kernel/Initializer/random_uniform/sub"
  attr {
    key: "T"
    value {
      type: DT_FLOAT
    }
  }
  attr {
    key: "_class"
    value {
      list {
        s: "loc:@Upsample/Encode_feature/conv1d_2/kernel"
      }
    }
  }
}
node {
  name: "Upsample/Encode_feature/conv1d_2/kernel/Initializer/random_uniform"
  op: "Add"
  input: "Upsample/Encode_feature/conv1d_2/kernel/Initializer/random_uniform/mul"
  input: "Upsample/Encode_feature/conv1d_2/kernel/Initializer/random_uniform/min"
  attr {
    key: "T"
    value {
      type: DT_FLOAT
    }
  }
  attr {
    key: "_class"
    value {
      list {
        s: "loc:@Upsample/Encode_feature/conv1d_2/kernel"
      }
    }
  }
}
node {
  name: "Upsample/Encode_feature/conv1d_2/kernel"
  op: "VariableV2"
  attr {
    key: "_class"
    value {
      list {
        s: "loc:@Upsample/Encode_feature/conv1d_2/kernel"
      }
    }
  }
  attr {
    key: "container"
    value {
      s: ""
    }
  }
  attr {
    key: "dtype"
    value {
      type: DT_FLOAT
    }
  }
  attr {
    key: "shape"
    value {
      shape {
        dim {
          size: 1
        }
        dim {
          size: 128
        }
        dim {
          size: 128
        }
      }
    }
  }
  attr {
    key: "shared_name"
    value {
      s: ""
    }
  }
}
node {
  name: "Upsample/Encode_feature/conv1d_2/kernel/Assign"
  op: "Assign"
  input: "Upsample/Encode_feature/conv1d_2/kernel"
  input: "Upsample/Encode_feature/conv1d_2/kernel/Initializer/random_uniform"
  attr {
    key: "T"
    value {
      type: DT_FLOAT
    }
  }
  attr {
    key: "_class"
    value {
      list {
        s: "loc:@Upsample/Encode_feature/conv1d_2/kernel"
      }
    }
  }
  attr {
    key: "use_locking"
    value {
      b: true
    }
  }
  attr {
    key: "validate_shape"
    value {
      b: true
    }
  }
}
node {
  name: "Upsample/Encode_feature/conv1d_2/kernel/read"
  op: "Identity"
  input: "Upsample/Encode_feature/conv1d_2/kernel"
  attr {
    key: "T"
    value {
      type: DT_FLOAT
    }
  }
  attr {
    key: "_class"
    value {
      list {
        s: "loc:@Upsample/Encode_feature/conv1d_2/kernel"
      }
    }
  }
}
node {
  name: "Upsample/Encode_feature/conv1d_2/bias/Initializer/zeros"
  op: "Const"
  attr {
    key: "_class"
    value {
      list {
        s: "loc:@Upsample/Encode_feature/conv1d_2/bias"
      }
    }
  }
  attr {
    key: "dtype"
    value {
      type: DT_FLOAT
    }
  }
  attr {
    key: "value"
    value {
      tensor {
        dtype: DT_FLOAT
        tensor_shape {
          dim {
            size: 128
          }
        }
        float_val: 0.0
      }
    }
  }
}
node {
  name: "Upsample/Encode_feature/conv1d_2/bias"
  op: "VariableV2"
  attr {
    key: "_class"
    value {
      list {
        s: "loc:@Upsample/Encode_feature/conv1d_2/bias"
      }
    }
  }
  attr {
    key: "container"
    value {
      s: ""
    }
  }
  attr {
    key: "dtype"
    value {
      type: DT_FLOAT
    }
  }
  attr {
    key: "shape"
    value {
      shape {
        dim {
          size: 128
        }
      }
    }
  }
  attr {
    key: "shared_name"
    value {
      s: ""
    }
  }
}
node {
  name: "Upsample/Encode_feature/conv1d_2/bias/Assign"
  op: "Assign"
  input: "Upsample/Encode_feature/conv1d_2/bias"
  input: "Upsample/Encode_feature/conv1d_2/bias/Initializer/zeros"
  attr {
    key: "T"
    value {
      type: DT_FLOAT
    }
  }
  attr {
    key: "_class"
    value {
      list {
        s: "loc:@Upsample/Encode_feature/conv1d_2/bias"
      }
    }
  }
  attr {
    key: "use_locking"
    value {
      b: true
    }
  }
  attr {
    key: "validate_shape"
    value {
      b: true
    }
  }
}
node {
  name: "Upsample/Encode_feature/conv1d_2/bias/read"
  op: "Identity"
  input: "Upsample/Encode_feature/conv1d_2/bias"
  attr {
    key: "T"
    value {
      type: DT_FLOAT
    }
  }
  attr {
    key: "_class"
    value {
      list {
        s: "loc:@Upsample/Encode_feature/conv1d_2/bias"
      }
    }
  }
}
node {
  name: "Upsample/Encode_feature/conv1d_2/dilation_rate"
  op: "Const"
  attr {
    key: "dtype"
    value {
      type: DT_INT32
    }
  }
  attr {
    key: "value"
    value {
      tensor {
        dtype: DT_INT32
        tensor_shape {
          dim {
            size: 1
          }
        }
        int_val: 1
      }
    }
  }
}
node {
  name: "Upsample/Encode_feature/conv1d_2/conv1d/ExpandDims/dim"
  op: "Const"
  attr {
    key: "dtype"
    value {
      type: DT_INT32
    }
  }
  attr {
    key: "value"
    value {
      tensor {
        dtype: DT_INT32
        tensor_shape {
        }
        int_val: 1
      }
    }
  }
}
node {
  name: "Upsample/Encode_feature/conv1d_2/conv1d/ExpandDims"
  op: "ExpandDims"
  input: "Upsample/Deconvolution/Squeeze"
  input: "Upsample/Encode_feature/conv1d_2/conv1d/ExpandDims/dim"
  attr {
    key: "T"
    value {
      type: DT_FLOAT
    }
  }
  attr {
    key: "Tdim"
    value {
      type: DT_INT32
    }
  }
}
node {
  name: "Upsample/Encode_feature/conv1d_2/conv1d/ExpandDims_1/dim"
  op: "Const"
  attr {
    key: "dtype"
    value {
      type: DT_INT32
    }
  }
  attr {
    key: "value"
    value {
      tensor {
        dtype: DT_INT32
        tensor_shape {
        }
        int_val: 0
      }
    }
  }
}
node {
  name: "Upsample/Encode_feature/conv1d_2/conv1d/ExpandDims_1"
  op: "ExpandDims"
  input: "Upsample/Encode_feature/conv1d_2/kernel/read"
  input: "Upsample/Encode_feature/conv1d_2/conv1d/ExpandDims_1/dim"
  attr {
    key: "T"
    value {
      type: DT_FLOAT
    }
  }
  attr {
    key: "Tdim"
    value {
      type: DT_INT32
    }
  }
}
node {
  name: "Upsample/Encode_feature/conv1d_2/conv1d/Conv2D"
  op: "Conv2D"
  input: "Upsample/Encode_feature/conv1d_2/conv1d/ExpandDims"
  input: "Upsample/Encode_feature/conv1d_2/conv1d/ExpandDims_1"
  attr {
    key: "T"
    value {
      type: DT_FLOAT
    }
  }
  attr {
    key: "data_format"
    value {
      s: "NHWC"
    }
  }
  attr {
    key: "dilations"
    value {
      list {
        i: 1
        i: 1
        i: 1
        i: 1
      }
    }
  }
  attr {
    key: "padding"
    value {
      s: "VALID"
    }
  }
  attr {
    key: "strides"
    value {
      list {
        i: 1
        i: 1
        i: 1
        i: 1
      }
    }
  }
  attr {
    key: "use_cudnn_on_gpu"
    value {
      b: true
    }
  }
}
node {
  name: "Upsample/Encode_feature/conv1d_2/conv1d/Squeeze"
  op: "Squeeze"
  input: "Upsample/Encode_feature/conv1d_2/conv1d/Conv2D"
  attr {
    key: "T"
    value {
      type: DT_FLOAT
    }
  }
  attr {
    key: "squeeze_dims"
    value {
      list {
        i: 1
      }
    }
  }
}
node {
  name: "Upsample/Encode_feature/conv1d_2/BiasAdd"
  op: "BiasAdd"
  input: "Upsample/Encode_feature/conv1d_2/conv1d/Squeeze"
  input: "Upsample/Encode_feature/conv1d_2/bias/read"
  attr {
    key: "T"
    value {
      type: DT_FLOAT
    }
  }
  attr {
    key: "data_format"
    value {
      s: "NHWC"
    }
  }
}
node {
  name: "Upsample/Encode_feature/conv1d_3/kernel/Initializer/random_uniform/shape"
  op: "Const"
  attr {
    key: "_class"
    value {
      list {
        s: "loc:@Upsample/Encode_feature/conv1d_3/kernel"
      }
    }
  }
  attr {
    key: "dtype"
    value {
      type: DT_INT32
    }
  }
  attr {
    key: "value"
    value {
      tensor {
        dtype: DT_INT32
        tensor_shape {
          dim {
            size: 3
          }
        }
        tensor_content: "\001\000\000\000\200\000\000\000\200\000\000\000"
      }
    }
  }
}
node {
  name: "Upsample/Encode_feature/conv1d_3/kernel/Initializer/random_uniform/min"
  op: "Const"
  attr {
    key: "_class"
    value {
      list {
        s: "loc:@Upsample/Encode_feature/conv1d_3/kernel"
      }
    }
  }
  attr {
    key: "dtype"
    value {
      type: DT_FLOAT
    }
  }
  attr {
    key: "value"
    value {
      tensor {
        dtype: DT_FLOAT
        tensor_shape {
        }
        float_val: -0.1530931144952774
      }
    }
  }
}
node {
  name: "Upsample/Encode_feature/conv1d_3/kernel/Initializer/random_uniform/max"
  op: "Const"
  attr {
    key: "_class"
    value {
      list {
        s: "loc:@Upsample/Encode_feature/conv1d_3/kernel"
      }
    }
  }
  attr {
    key: "dtype"
    value {
      type: DT_FLOAT
    }
  }
  attr {
    key: "value"
    value {
      tensor {
        dtype: DT_FLOAT
        tensor_shape {
        }
        float_val: 0.1530931144952774
      }
    }
  }
}
node {
  name: "Upsample/Encode_feature/conv1d_3/kernel/Initializer/random_uniform/RandomUniform"
  op: "RandomUniform"
  input: "Upsample/Encode_feature/conv1d_3/kernel/Initializer/random_uniform/shape"
  attr {
    key: "T"
    value {
      type: DT_INT32
    }
  }
  attr {
    key: "_class"
    value {
      list {
        s: "loc:@Upsample/Encode_feature/conv1d_3/kernel"
      }
    }
  }
  attr {
    key: "dtype"
    value {
      type: DT_FLOAT
    }
  }
  attr {
    key: "seed"
    value {
      i: 0
    }
  }
  attr {
    key: "seed2"
    value {
      i: 0
    }
  }
}
node {
  name: "Upsample/Encode_feature/conv1d_3/kernel/Initializer/random_uniform/sub"
  op: "Sub"
  input: "Upsample/Encode_feature/conv1d_3/kernel/Initializer/random_uniform/max"
  input: "Upsample/Encode_feature/conv1d_3/kernel/Initializer/random_uniform/min"
  attr {
    key: "T"
    value {
      type: DT_FLOAT
    }
  }
  attr {
    key: "_class"
    value {
      list {
        s: "loc:@Upsample/Encode_feature/conv1d_3/kernel"
      }
    }
  }
}
node {
  name: "Upsample/Encode_feature/conv1d_3/kernel/Initializer/random_uniform/mul"
  op: "Mul"
  input: "Upsample/Encode_feature/conv1d_3/kernel/Initializer/random_uniform/RandomUniform"
  input: "Upsample/Encode_feature/conv1d_3/kernel/Initializer/random_uniform/sub"
  attr {
    key: "T"
    value {
      type: DT_FLOAT
    }
  }
  attr {
    key: "_class"
    value {
      list {
        s: "loc:@Upsample/Encode_feature/conv1d_3/kernel"
      }
    }
  }
}
node {
  name: "Upsample/Encode_feature/conv1d_3/kernel/Initializer/random_uniform"
  op: "Add"
  input: "Upsample/Encode_feature/conv1d_3/kernel/Initializer/random_uniform/mul"
  input: "Upsample/Encode_feature/conv1d_3/kernel/Initializer/random_uniform/min"
  attr {
    key: "T"
    value {
      type: DT_FLOAT
    }
  }
  attr {
    key: "_class"
    value {
      list {
        s: "loc:@Upsample/Encode_feature/conv1d_3/kernel"
      }
    }
  }
}
node {
  name: "Upsample/Encode_feature/conv1d_3/kernel"
  op: "VariableV2"
  attr {
    key: "_class"
    value {
      list {
        s: "loc:@Upsample/Encode_feature/conv1d_3/kernel"
      }
    }
  }
  attr {
    key: "container"
    value {
      s: ""
    }
  }
  attr {
    key: "dtype"
    value {
      type: DT_FLOAT
    }
  }
  attr {
    key: "shape"
    value {
      shape {
        dim {
          size: 1
        }
        dim {
          size: 128
        }
        dim {
          size: 128
        }
      }
    }
  }
  attr {
    key: "shared_name"
    value {
      s: ""
    }
  }
}
node {
  name: "Upsample/Encode_feature/conv1d_3/kernel/Assign"
  op: "Assign"
  input: "Upsample/Encode_feature/conv1d_3/kernel"
  input: "Upsample/Encode_feature/conv1d_3/kernel/Initializer/random_uniform"
  attr {
    key: "T"
    value {
      type: DT_FLOAT
    }
  }
  attr {
    key: "_class"
    value {
      list {
        s: "loc:@Upsample/Encode_feature/conv1d_3/kernel"
      }
    }
  }
  attr {
    key: "use_locking"
    value {
      b: true
    }
  }
  attr {
    key: "validate_shape"
    value {
      b: true
    }
  }
}
node {
  name: "Upsample/Encode_feature/conv1d_3/kernel/read"
  op: "Identity"
  input: "Upsample/Encode_feature/conv1d_3/kernel"
  attr {
    key: "T"
    value {
      type: DT_FLOAT
    }
  }
  attr {
    key: "_class"
    value {
      list {
        s: "loc:@Upsample/Encode_feature/conv1d_3/kernel"
      }
    }
  }
}
node {
  name: "Upsample/Encode_feature/conv1d_3/bias/Initializer/zeros"
  op: "Const"
  attr {
    key: "_class"
    value {
      list {
        s: "loc:@Upsample/Encode_feature/conv1d_3/bias"
      }
    }
  }
  attr {
    key: "dtype"
    value {
      type: DT_FLOAT
    }
  }
  attr {
    key: "value"
    value {
      tensor {
        dtype: DT_FLOAT
        tensor_shape {
          dim {
            size: 128
          }
        }
        float_val: 0.0
      }
    }
  }
}
node {
  name: "Upsample/Encode_feature/conv1d_3/bias"
  op: "VariableV2"
  attr {
    key: "_class"
    value {
      list {
        s: "loc:@Upsample/Encode_feature/conv1d_3/bias"
      }
    }
  }
  attr {
    key: "container"
    value {
      s: ""
    }
  }
  attr {
    key: "dtype"
    value {
      type: DT_FLOAT
    }
  }
  attr {
    key: "shape"
    value {
      shape {
        dim {
          size: 128
        }
      }
    }
  }
  attr {
    key: "shared_name"
    value {
      s: ""
    }
  }
}
node {
  name: "Upsample/Encode_feature/conv1d_3/bias/Assign"
  op: "Assign"
  input: "Upsample/Encode_feature/conv1d_3/bias"
  input: "Upsample/Encode_feature/conv1d_3/bias/Initializer/zeros"
  attr {
    key: "T"
    value {
      type: DT_FLOAT
    }
  }
  attr {
    key: "_class"
    value {
      list {
        s: "loc:@Upsample/Encode_feature/conv1d_3/bias"
      }
    }
  }
  attr {
    key: "use_locking"
    value {
      b: true
    }
  }
  attr {
    key: "validate_shape"
    value {
      b: true
    }
  }
}
node {
  name: "Upsample/Encode_feature/conv1d_3/bias/read"
  op: "Identity"
  input: "Upsample/Encode_feature/conv1d_3/bias"
  attr {
    key: "T"
    value {
      type: DT_FLOAT
    }
  }
  attr {
    key: "_class"
    value {
      list {
        s: "loc:@Upsample/Encode_feature/conv1d_3/bias"
      }
    }
  }
}
node {
  name: "Upsample/Encode_feature/conv1d_3/dilation_rate"
  op: "Const"
  attr {
    key: "dtype"
    value {
      type: DT_INT32
    }
  }
  attr {
    key: "value"
    value {
      tensor {
        dtype: DT_INT32
        tensor_shape {
          dim {
            size: 1
          }
        }
        int_val: 1
      }
    }
  }
}
node {
  name: "Upsample/Encode_feature/conv1d_3/conv1d/ExpandDims/dim"
  op: "Const"
  attr {
    key: "dtype"
    value {
      type: DT_INT32
    }
  }
  attr {
    key: "value"
    value {
      tensor {
        dtype: DT_INT32
        tensor_shape {
        }
        int_val: 1
      }
    }
  }
}
node {
  name: "Upsample/Encode_feature/conv1d_3/conv1d/ExpandDims"
  op: "ExpandDims"
  input: "Upsample/Deconvolution/Squeeze"
  input: "Upsample/Encode_feature/conv1d_3/conv1d/ExpandDims/dim"
  attr {
    key: "T"
    value {
      type: DT_FLOAT
    }
  }
  attr {
    key: "Tdim"
    value {
      type: DT_INT32
    }
  }
}
node {
  name: "Upsample/Encode_feature/conv1d_3/conv1d/ExpandDims_1/dim"
  op: "Const"
  attr {
    key: "dtype"
    value {
      type: DT_INT32
    }
  }
  attr {
    key: "value"
    value {
      tensor {
        dtype: DT_INT32
        tensor_shape {
        }
        int_val: 0
      }
    }
  }
}
node {
  name: "Upsample/Encode_feature/conv1d_3/conv1d/ExpandDims_1"
  op: "ExpandDims"
  input: "Upsample/Encode_feature/conv1d_3/kernel/read"
  input: "Upsample/Encode_feature/conv1d_3/conv1d/ExpandDims_1/dim"
  attr {
    key: "T"
    value {
      type: DT_FLOAT
    }
  }
  attr {
    key: "Tdim"
    value {
      type: DT_INT32
    }
  }
}
node {
  name: "Upsample/Encode_feature/conv1d_3/conv1d/Conv2D"
  op: "Conv2D"
  input: "Upsample/Encode_feature/conv1d_3/conv1d/ExpandDims"
  input: "Upsample/Encode_feature/conv1d_3/conv1d/ExpandDims_1"
  attr {
    key: "T"
    value {
      type: DT_FLOAT
    }
  }
  attr {
    key: "data_format"
    value {
      s: "NHWC"
    }
  }
  attr {
    key: "dilations"
    value {
      list {
        i: 1
        i: 1
        i: 1
        i: 1
      }
    }
  }
  attr {
    key: "padding"
    value {
      s: "VALID"
    }
  }
  attr {
    key: "strides"
    value {
      list {
        i: 1
        i: 1
        i: 1
        i: 1
      }
    }
  }
  attr {
    key: "use_cudnn_on_gpu"
    value {
      b: true
    }
  }
}
node {
  name: "Upsample/Encode_feature/conv1d_3/conv1d/Squeeze"
  op: "Squeeze"
  input: "Upsample/Encode_feature/conv1d_3/conv1d/Conv2D"
  attr {
    key: "T"
    value {
      type: DT_FLOAT
    }
  }
  attr {
    key: "squeeze_dims"
    value {
      list {
        i: 1
      }
    }
  }
}
node {
  name: "Upsample/Encode_feature/conv1d_3/BiasAdd"
  op: "BiasAdd"
  input: "Upsample/Encode_feature/conv1d_3/conv1d/Squeeze"
  input: "Upsample/Encode_feature/conv1d_3/bias/read"
  attr {
    key: "T"
    value {
      type: DT_FLOAT
    }
  }
  attr {
    key: "data_format"
    value {
      s: "NHWC"
    }
  }
}
node {
  name: "Upsample/Encode_feature/conv1d_4/kernel/Initializer/random_uniform/shape"
  op: "Const"
  attr {
    key: "_class"
    value {
      list {
        s: "loc:@Upsample/Encode_feature/conv1d_4/kernel"
      }
    }
  }
  attr {
    key: "dtype"
    value {
      type: DT_INT32
    }
  }
  attr {
    key: "value"
    value {
      tensor {
        dtype: DT_INT32
        tensor_shape {
          dim {
            size: 3
          }
        }
        tensor_content: "\001\000\000\000\200\000\000\000\200\000\000\000"
      }
    }
  }
}
node {
  name: "Upsample/Encode_feature/conv1d_4/kernel/Initializer/random_uniform/min"
  op: "Const"
  attr {
    key: "_class"
    value {
      list {
        s: "loc:@Upsample/Encode_feature/conv1d_4/kernel"
      }
    }
  }
  attr {
    key: "dtype"
    value {
      type: DT_FLOAT
    }
  }
  attr {
    key: "value"
    value {
      tensor {
        dtype: DT_FLOAT
        tensor_shape {
        }
        float_val: -0.1530931144952774
      }
    }
  }
}
node {
  name: "Upsample/Encode_feature/conv1d_4/kernel/Initializer/random_uniform/max"
  op: "Const"
  attr {
    key: "_class"
    value {
      list {
        s: "loc:@Upsample/Encode_feature/conv1d_4/kernel"
      }
    }
  }
  attr {
    key: "dtype"
    value {
      type: DT_FLOAT
    }
  }
  attr {
    key: "value"
    value {
      tensor {
        dtype: DT_FLOAT
        tensor_shape {
        }
        float_val: 0.1530931144952774
      }
    }
  }
}
node {
  name: "Upsample/Encode_feature/conv1d_4/kernel/Initializer/random_uniform/RandomUniform"
  op: "RandomUniform"
  input: "Upsample/Encode_feature/conv1d_4/kernel/Initializer/random_uniform/shape"
  attr {
    key: "T"
    value {
      type: DT_INT32
    }
  }
  attr {
    key: "_class"
    value {
      list {
        s: "loc:@Upsample/Encode_feature/conv1d_4/kernel"
      }
    }
  }
  attr {
    key: "dtype"
    value {
      type: DT_FLOAT
    }
  }
  attr {
    key: "seed"
    value {
      i: 0
    }
  }
  attr {
    key: "seed2"
    value {
      i: 0
    }
  }
}
node {
  name: "Upsample/Encode_feature/conv1d_4/kernel/Initializer/random_uniform/sub"
  op: "Sub"
  input: "Upsample/Encode_feature/conv1d_4/kernel/Initializer/random_uniform/max"
  input: "Upsample/Encode_feature/conv1d_4/kernel/Initializer/random_uniform/min"
  attr {
    key: "T"
    value {
      type: DT_FLOAT
    }
  }
  attr {
    key: "_class"
    value {
      list {
        s: "loc:@Upsample/Encode_feature/conv1d_4/kernel"
      }
    }
  }
}
node {
  name: "Upsample/Encode_feature/conv1d_4/kernel/Initializer/random_uniform/mul"
  op: "Mul"
  input: "Upsample/Encode_feature/conv1d_4/kernel/Initializer/random_uniform/RandomUniform"
  input: "Upsample/Encode_feature/conv1d_4/kernel/Initializer/random_uniform/sub"
  attr {
    key: "T"
    value {
      type: DT_FLOAT
    }
  }
  attr {
    key: "_class"
    value {
      list {
        s: "loc:@Upsample/Encode_feature/conv1d_4/kernel"
      }
    }
  }
}
node {
  name: "Upsample/Encode_feature/conv1d_4/kernel/Initializer/random_uniform"
  op: "Add"
  input: "Upsample/Encode_feature/conv1d_4/kernel/Initializer/random_uniform/mul"
  input: "Upsample/Encode_feature/conv1d_4/kernel/Initializer/random_uniform/min"
  attr {
    key: "T"
    value {
      type: DT_FLOAT
    }
  }
  attr {
    key: "_class"
    value {
      list {
        s: "loc:@Upsample/Encode_feature/conv1d_4/kernel"
      }
    }
  }
}
node {
  name: "Upsample/Encode_feature/conv1d_4/kernel"
  op: "VariableV2"
  attr {
    key: "_class"
    value {
      list {
        s: "loc:@Upsample/Encode_feature/conv1d_4/kernel"
      }
    }
  }
  attr {
    key: "container"
    value {
      s: ""
    }
  }
  attr {
    key: "dtype"
    value {
      type: DT_FLOAT
    }
  }
  attr {
    key: "shape"
    value {
      shape {
        dim {
          size: 1
        }
        dim {
          size: 128
        }
        dim {
          size: 128
        }
      }
    }
  }
  attr {
    key: "shared_name"
    value {
      s: ""
    }
  }
}
node {
  name: "Upsample/Encode_feature/conv1d_4/kernel/Assign"
  op: "Assign"
  input: "Upsample/Encode_feature/conv1d_4/kernel"
  input: "Upsample/Encode_feature/conv1d_4/kernel/Initializer/random_uniform"
  attr {
    key: "T"
    value {
      type: DT_FLOAT
    }
  }
  attr {
    key: "_class"
    value {
      list {
        s: "loc:@Upsample/Encode_feature/conv1d_4/kernel"
      }
    }
  }
  attr {
    key: "use_locking"
    value {
      b: true
    }
  }
  attr {
    key: "validate_shape"
    value {
      b: true
    }
  }
}
node {
  name: "Upsample/Encode_feature/conv1d_4/kernel/read"
  op: "Identity"
  input: "Upsample/Encode_feature/conv1d_4/kernel"
  attr {
    key: "T"
    value {
      type: DT_FLOAT
    }
  }
  attr {
    key: "_class"
    value {
      list {
        s: "loc:@Upsample/Encode_feature/conv1d_4/kernel"
      }
    }
  }
}
node {
  name: "Upsample/Encode_feature/conv1d_4/bias/Initializer/zeros"
  op: "Const"
  attr {
    key: "_class"
    value {
      list {
        s: "loc:@Upsample/Encode_feature/conv1d_4/bias"
      }
    }
  }
  attr {
    key: "dtype"
    value {
      type: DT_FLOAT
    }
  }
  attr {
    key: "value"
    value {
      tensor {
        dtype: DT_FLOAT
        tensor_shape {
          dim {
            size: 128
          }
        }
        float_val: 0.0
      }
    }
  }
}
node {
  name: "Upsample/Encode_feature/conv1d_4/bias"
  op: "VariableV2"
  attr {
    key: "_class"
    value {
      list {
        s: "loc:@Upsample/Encode_feature/conv1d_4/bias"
      }
    }
  }
  attr {
    key: "container"
    value {
      s: ""
    }
  }
  attr {
    key: "dtype"
    value {
      type: DT_FLOAT
    }
  }
  attr {
    key: "shape"
    value {
      shape {
        dim {
          size: 128
        }
      }
    }
  }
  attr {
    key: "shared_name"
    value {
      s: ""
    }
  }
}
node {
  name: "Upsample/Encode_feature/conv1d_4/bias/Assign"
  op: "Assign"
  input: "Upsample/Encode_feature/conv1d_4/bias"
  input: "Upsample/Encode_feature/conv1d_4/bias/Initializer/zeros"
  attr {
    key: "T"
    value {
      type: DT_FLOAT
    }
  }
  attr {
    key: "_class"
    value {
      list {
        s: "loc:@Upsample/Encode_feature/conv1d_4/bias"
      }
    }
  }
  attr {
    key: "use_locking"
    value {
      b: true
    }
  }
  attr {
    key: "validate_shape"
    value {
      b: true
    }
  }
}
node {
  name: "Upsample/Encode_feature/conv1d_4/bias/read"
  op: "Identity"
  input: "Upsample/Encode_feature/conv1d_4/bias"
  attr {
    key: "T"
    value {
      type: DT_FLOAT
    }
  }
  attr {
    key: "_class"
    value {
      list {
        s: "loc:@Upsample/Encode_feature/conv1d_4/bias"
      }
    }
  }
}
node {
  name: "Upsample/Encode_feature/conv1d_4/dilation_rate"
  op: "Const"
  attr {
    key: "dtype"
    value {
      type: DT_INT32
    }
  }
  attr {
    key: "value"
    value {
      tensor {
        dtype: DT_INT32
        tensor_shape {
          dim {
            size: 1
          }
        }
        int_val: 1
      }
    }
  }
}
node {
  name: "Upsample/Encode_feature/conv1d_4/conv1d/ExpandDims/dim"
  op: "Const"
  attr {
    key: "dtype"
    value {
      type: DT_INT32
    }
  }
  attr {
    key: "value"
    value {
      tensor {
        dtype: DT_INT32
        tensor_shape {
        }
        int_val: 1
      }
    }
  }
}
node {
  name: "Upsample/Encode_feature/conv1d_4/conv1d/ExpandDims"
  op: "ExpandDims"
  input: "Upsample/Deconvolution/Squeeze"
  input: "Upsample/Encode_feature/conv1d_4/conv1d/ExpandDims/dim"
  attr {
    key: "T"
    value {
      type: DT_FLOAT
    }
  }
  attr {
    key: "Tdim"
    value {
      type: DT_INT32
    }
  }
}
node {
  name: "Upsample/Encode_feature/conv1d_4/conv1d/ExpandDims_1/dim"
  op: "Const"
  attr {
    key: "dtype"
    value {
      type: DT_INT32
    }
  }
  attr {
    key: "value"
    value {
      tensor {
        dtype: DT_INT32
        tensor_shape {
        }
        int_val: 0
      }
    }
  }
}
node {
  name: "Upsample/Encode_feature/conv1d_4/conv1d/ExpandDims_1"
  op: "ExpandDims"
  input: "Upsample/Encode_feature/conv1d_4/kernel/read"
  input: "Upsample/Encode_feature/conv1d_4/conv1d/ExpandDims_1/dim"
  attr {
    key: "T"
    value {
      type: DT_FLOAT
    }
  }
  attr {
    key: "Tdim"
    value {
      type: DT_INT32
    }
  }
}
node {
  name: "Upsample/Encode_feature/conv1d_4/conv1d/Conv2D"
  op: "Conv2D"
  input: "Upsample/Encode_feature/conv1d_4/conv1d/ExpandDims"
  input: "Upsample/Encode_feature/conv1d_4/conv1d/ExpandDims_1"
  attr {
    key: "T"
    value {
      type: DT_FLOAT
    }
  }
  attr {
    key: "data_format"
    value {
      s: "NHWC"
    }
  }
  attr {
    key: "dilations"
    value {
      list {
        i: 1
        i: 1
        i: 1
        i: 1
      }
    }
  }
  attr {
    key: "padding"
    value {
      s: "VALID"
    }
  }
  attr {
    key: "strides"
    value {
      list {
        i: 1
        i: 1
        i: 1
        i: 1
      }
    }
  }
  attr {
    key: "use_cudnn_on_gpu"
    value {
      b: true
    }
  }
}
node {
  name: "Upsample/Encode_feature/conv1d_4/conv1d/Squeeze"
  op: "Squeeze"
  input: "Upsample/Encode_feature/conv1d_4/conv1d/Conv2D"
  attr {
    key: "T"
    value {
      type: DT_FLOAT
    }
  }
  attr {
    key: "squeeze_dims"
    value {
      list {
        i: 1
      }
    }
  }
}
node {
  name: "Upsample/Encode_feature/conv1d_4/BiasAdd"
  op: "BiasAdd"
  input: "Upsample/Encode_feature/conv1d_4/conv1d/Squeeze"
  input: "Upsample/Encode_feature/conv1d_4/bias/read"
  attr {
    key: "T"
    value {
      type: DT_FLOAT
    }
  }
  attr {
    key: "data_format"
    value {
      s: "NHWC"
    }
  }
}
node {
  name: "Upsample/Encode_feature/conv1d_5/kernel/Initializer/random_uniform/shape"
  op: "Const"
  attr {
    key: "_class"
    value {
      list {
        s: "loc:@Upsample/Encode_feature/conv1d_5/kernel"
      }
    }
  }
  attr {
    key: "dtype"
    value {
      type: DT_INT32
    }
  }
  attr {
    key: "value"
    value {
      tensor {
        dtype: DT_INT32
        tensor_shape {
          dim {
            size: 3
          }
        }
        tensor_content: "\001\000\000\000\200\000\000\000\200\000\000\000"
      }
    }
  }
}
node {
  name: "Upsample/Encode_feature/conv1d_5/kernel/Initializer/random_uniform/min"
  op: "Const"
  attr {
    key: "_class"
    value {
      list {
        s: "loc:@Upsample/Encode_feature/conv1d_5/kernel"
      }
    }
  }
  attr {
    key: "dtype"
    value {
      type: DT_FLOAT
    }
  }
  attr {
    key: "value"
    value {
      tensor {
        dtype: DT_FLOAT
        tensor_shape {
        }
        float_val: -0.1530931144952774
      }
    }
  }
}
node {
  name: "Upsample/Encode_feature/conv1d_5/kernel/Initializer/random_uniform/max"
  op: "Const"
  attr {
    key: "_class"
    value {
      list {
        s: "loc:@Upsample/Encode_feature/conv1d_5/kernel"
      }
    }
  }
  attr {
    key: "dtype"
    value {
      type: DT_FLOAT
    }
  }
  attr {
    key: "value"
    value {
      tensor {
        dtype: DT_FLOAT
        tensor_shape {
        }
        float_val: 0.1530931144952774
      }
    }
  }
}
node {
  name: "Upsample/Encode_feature/conv1d_5/kernel/Initializer/random_uniform/RandomUniform"
  op: "RandomUniform"
  input: "Upsample/Encode_feature/conv1d_5/kernel/Initializer/random_uniform/shape"
  attr {
    key: "T"
    value {
      type: DT_INT32
    }
  }
  attr {
    key: "_class"
    value {
      list {
        s: "loc:@Upsample/Encode_feature/conv1d_5/kernel"
      }
    }
  }
  attr {
    key: "dtype"
    value {
      type: DT_FLOAT
    }
  }
  attr {
    key: "seed"
    value {
      i: 0
    }
  }
  attr {
    key: "seed2"
    value {
      i: 0
    }
  }
}
node {
  name: "Upsample/Encode_feature/conv1d_5/kernel/Initializer/random_uniform/sub"
  op: "Sub"
  input: "Upsample/Encode_feature/conv1d_5/kernel/Initializer/random_uniform/max"
  input: "Upsample/Encode_feature/conv1d_5/kernel/Initializer/random_uniform/min"
  attr {
    key: "T"
    value {
      type: DT_FLOAT
    }
  }
  attr {
    key: "_class"
    value {
      list {
        s: "loc:@Upsample/Encode_feature/conv1d_5/kernel"
      }
    }
  }
}
node {
  name: "Upsample/Encode_feature/conv1d_5/kernel/Initializer/random_uniform/mul"
  op: "Mul"
  input: "Upsample/Encode_feature/conv1d_5/kernel/Initializer/random_uniform/RandomUniform"
  input: "Upsample/Encode_feature/conv1d_5/kernel/Initializer/random_uniform/sub"
  attr {
    key: "T"
    value {
      type: DT_FLOAT
    }
  }
  attr {
    key: "_class"
    value {
      list {
        s: "loc:@Upsample/Encode_feature/conv1d_5/kernel"
      }
    }
  }
}
node {
  name: "Upsample/Encode_feature/conv1d_5/kernel/Initializer/random_uniform"
  op: "Add"
  input: "Upsample/Encode_feature/conv1d_5/kernel/Initializer/random_uniform/mul"
  input: "Upsample/Encode_feature/conv1d_5/kernel/Initializer/random_uniform/min"
  attr {
    key: "T"
    value {
      type: DT_FLOAT
    }
  }
  attr {
    key: "_class"
    value {
      list {
        s: "loc:@Upsample/Encode_feature/conv1d_5/kernel"
      }
    }
  }
}
node {
  name: "Upsample/Encode_feature/conv1d_5/kernel"
  op: "VariableV2"
  attr {
    key: "_class"
    value {
      list {
        s: "loc:@Upsample/Encode_feature/conv1d_5/kernel"
      }
    }
  }
  attr {
    key: "container"
    value {
      s: ""
    }
  }
  attr {
    key: "dtype"
    value {
      type: DT_FLOAT
    }
  }
  attr {
    key: "shape"
    value {
      shape {
        dim {
          size: 1
        }
        dim {
          size: 128
        }
        dim {
          size: 128
        }
      }
    }
  }
  attr {
    key: "shared_name"
    value {
      s: ""
    }
  }
}
node {
  name: "Upsample/Encode_feature/conv1d_5/kernel/Assign"
  op: "Assign"
  input: "Upsample/Encode_feature/conv1d_5/kernel"
  input: "Upsample/Encode_feature/conv1d_5/kernel/Initializer/random_uniform"
  attr {
    key: "T"
    value {
      type: DT_FLOAT
    }
  }
  attr {
    key: "_class"
    value {
      list {
        s: "loc:@Upsample/Encode_feature/conv1d_5/kernel"
      }
    }
  }
  attr {
    key: "use_locking"
    value {
      b: true
    }
  }
  attr {
    key: "validate_shape"
    value {
      b: true
    }
  }
}
node {
  name: "Upsample/Encode_feature/conv1d_5/kernel/read"
  op: "Identity"
  input: "Upsample/Encode_feature/conv1d_5/kernel"
  attr {
    key: "T"
    value {
      type: DT_FLOAT
    }
  }
  attr {
    key: "_class"
    value {
      list {
        s: "loc:@Upsample/Encode_feature/conv1d_5/kernel"
      }
    }
  }
}
node {
  name: "Upsample/Encode_feature/conv1d_5/bias/Initializer/zeros"
  op: "Const"
  attr {
    key: "_class"
    value {
      list {
        s: "loc:@Upsample/Encode_feature/conv1d_5/bias"
      }
    }
  }
  attr {
    key: "dtype"
    value {
      type: DT_FLOAT
    }
  }
  attr {
    key: "value"
    value {
      tensor {
        dtype: DT_FLOAT
        tensor_shape {
          dim {
            size: 128
          }
        }
        float_val: 0.0
      }
    }
  }
}
node {
  name: "Upsample/Encode_feature/conv1d_5/bias"
  op: "VariableV2"
  attr {
    key: "_class"
    value {
      list {
        s: "loc:@Upsample/Encode_feature/conv1d_5/bias"
      }
    }
  }
  attr {
    key: "container"
    value {
      s: ""
    }
  }
  attr {
    key: "dtype"
    value {
      type: DT_FLOAT
    }
  }
  attr {
    key: "shape"
    value {
      shape {
        dim {
          size: 128
        }
      }
    }
  }
  attr {
    key: "shared_name"
    value {
      s: ""
    }
  }
}
node {
  name: "Upsample/Encode_feature/conv1d_5/bias/Assign"
  op: "Assign"
  input: "Upsample/Encode_feature/conv1d_5/bias"
  input: "Upsample/Encode_feature/conv1d_5/bias/Initializer/zeros"
  attr {
    key: "T"
    value {
      type: DT_FLOAT
    }
  }
  attr {
    key: "_class"
    value {
      list {
        s: "loc:@Upsample/Encode_feature/conv1d_5/bias"
      }
    }
  }
  attr {
    key: "use_locking"
    value {
      b: true
    }
  }
  attr {
    key: "validate_shape"
    value {
      b: true
    }
  }
}
node {
  name: "Upsample/Encode_feature/conv1d_5/bias/read"
  op: "Identity"
  input: "Upsample/Encode_feature/conv1d_5/bias"
  attr {
    key: "T"
    value {
      type: DT_FLOAT
    }
  }
  attr {
    key: "_class"
    value {
      list {
        s: "loc:@Upsample/Encode_feature/conv1d_5/bias"
      }
    }
  }
}
node {
  name: "Upsample/Encode_feature/conv1d_5/dilation_rate"
  op: "Const"
  attr {
    key: "dtype"
    value {
      type: DT_INT32
    }
  }
  attr {
    key: "value"
    value {
      tensor {
        dtype: DT_INT32
        tensor_shape {
          dim {
            size: 1
          }
        }
        int_val: 1
      }
    }
  }
}
node {
  name: "Upsample/Encode_feature/conv1d_5/conv1d/ExpandDims/dim"
  op: "Const"
  attr {
    key: "dtype"
    value {
      type: DT_INT32
    }
  }
  attr {
    key: "value"
    value {
      tensor {
        dtype: DT_INT32
        tensor_shape {
        }
        int_val: 1
      }
    }
  }
}
node {
  name: "Upsample/Encode_feature/conv1d_5/conv1d/ExpandDims"
  op: "ExpandDims"
  input: "Upsample/Deconvolution/Squeeze"
  input: "Upsample/Encode_feature/conv1d_5/conv1d/ExpandDims/dim"
  attr {
    key: "T"
    value {
      type: DT_FLOAT
    }
  }
  attr {
    key: "Tdim"
    value {
      type: DT_INT32
    }
  }
}
node {
  name: "Upsample/Encode_feature/conv1d_5/conv1d/ExpandDims_1/dim"
  op: "Const"
  attr {
    key: "dtype"
    value {
      type: DT_INT32
    }
  }
  attr {
    key: "value"
    value {
      tensor {
        dtype: DT_INT32
        tensor_shape {
        }
        int_val: 0
      }
    }
  }
}
node {
  name: "Upsample/Encode_feature/conv1d_5/conv1d/ExpandDims_1"
  op: "ExpandDims"
  input: "Upsample/Encode_feature/conv1d_5/kernel/read"
  input: "Upsample/Encode_feature/conv1d_5/conv1d/ExpandDims_1/dim"
  attr {
    key: "T"
    value {
      type: DT_FLOAT
    }
  }
  attr {
    key: "Tdim"
    value {
      type: DT_INT32
    }
  }
}
node {
  name: "Upsample/Encode_feature/conv1d_5/conv1d/Conv2D"
  op: "Conv2D"
  input: "Upsample/Encode_feature/conv1d_5/conv1d/ExpandDims"
  input: "Upsample/Encode_feature/conv1d_5/conv1d/ExpandDims_1"
  attr {
    key: "T"
    value {
      type: DT_FLOAT
    }
  }
  attr {
    key: "data_format"
    value {
      s: "NHWC"
    }
  }
  attr {
    key: "dilations"
    value {
      list {
        i: 1
        i: 1
        i: 1
        i: 1
      }
    }
  }
  attr {
    key: "padding"
    value {
      s: "VALID"
    }
  }
  attr {
    key: "strides"
    value {
      list {
        i: 1
        i: 1
        i: 1
        i: 1
      }
    }
  }
  attr {
    key: "use_cudnn_on_gpu"
    value {
      b: true
    }
  }
}
node {
  name: "Upsample/Encode_feature/conv1d_5/conv1d/Squeeze"
  op: "Squeeze"
  input: "Upsample/Encode_feature/conv1d_5/conv1d/Conv2D"
  attr {
    key: "T"
    value {
      type: DT_FLOAT
    }
  }
  attr {
    key: "squeeze_dims"
    value {
      list {
        i: 1
      }
    }
  }
}
node {
  name: "Upsample/Encode_feature/conv1d_5/BiasAdd"
  op: "BiasAdd"
  input: "Upsample/Encode_feature/conv1d_5/conv1d/Squeeze"
  input: "Upsample/Encode_feature/conv1d_5/bias/read"
  attr {
    key: "T"
    value {
      type: DT_FLOAT
    }
  }
  attr {
    key: "data_format"
    value {
      s: "NHWC"
    }
  }
}
node {
  name: "Upsample/Encode_feature/conv1d_6/kernel/Initializer/random_uniform/shape"
  op: "Const"
  attr {
    key: "_class"
    value {
      list {
        s: "loc:@Upsample/Encode_feature/conv1d_6/kernel"
      }
    }
  }
  attr {
    key: "dtype"
    value {
      type: DT_INT32
    }
  }
  attr {
    key: "value"
    value {
      tensor {
        dtype: DT_INT32
        tensor_shape {
          dim {
            size: 3
          }
        }
        tensor_content: "\001\000\000\000\200\000\000\000\200\000\000\000"
      }
    }
  }
}
node {
  name: "Upsample/Encode_feature/conv1d_6/kernel/Initializer/random_uniform/min"
  op: "Const"
  attr {
    key: "_class"
    value {
      list {
        s: "loc:@Upsample/Encode_feature/conv1d_6/kernel"
      }
    }
  }
  attr {
    key: "dtype"
    value {
      type: DT_FLOAT
    }
  }
  attr {
    key: "value"
    value {
      tensor {
        dtype: DT_FLOAT
        tensor_shape {
        }
        float_val: -0.1530931144952774
      }
    }
  }
}
node {
  name: "Upsample/Encode_feature/conv1d_6/kernel/Initializer/random_uniform/max"
  op: "Const"
  attr {
    key: "_class"
    value {
      list {
        s: "loc:@Upsample/Encode_feature/conv1d_6/kernel"
      }
    }
  }
  attr {
    key: "dtype"
    value {
      type: DT_FLOAT
    }
  }
  attr {
    key: "value"
    value {
      tensor {
        dtype: DT_FLOAT
        tensor_shape {
        }
        float_val: 0.1530931144952774
      }
    }
  }
}
node {
  name: "Upsample/Encode_feature/conv1d_6/kernel/Initializer/random_uniform/RandomUniform"
  op: "RandomUniform"
  input: "Upsample/Encode_feature/conv1d_6/kernel/Initializer/random_uniform/shape"
  attr {
    key: "T"
    value {
      type: DT_INT32
    }
  }
  attr {
    key: "_class"
    value {
      list {
        s: "loc:@Upsample/Encode_feature/conv1d_6/kernel"
      }
    }
  }
  attr {
    key: "dtype"
    value {
      type: DT_FLOAT
    }
  }
  attr {
    key: "seed"
    value {
      i: 0
    }
  }
  attr {
    key: "seed2"
    value {
      i: 0
    }
  }
}
node {
  name: "Upsample/Encode_feature/conv1d_6/kernel/Initializer/random_uniform/sub"
  op: "Sub"
  input: "Upsample/Encode_feature/conv1d_6/kernel/Initializer/random_uniform/max"
  input: "Upsample/Encode_feature/conv1d_6/kernel/Initializer/random_uniform/min"
  attr {
    key: "T"
    value {
      type: DT_FLOAT
    }
  }
  attr {
    key: "_class"
    value {
      list {
        s: "loc:@Upsample/Encode_feature/conv1d_6/kernel"
      }
    }
  }
}
node {
  name: "Upsample/Encode_feature/conv1d_6/kernel/Initializer/random_uniform/mul"
  op: "Mul"
  input: "Upsample/Encode_feature/conv1d_6/kernel/Initializer/random_uniform/RandomUniform"
  input: "Upsample/Encode_feature/conv1d_6/kernel/Initializer/random_uniform/sub"
  attr {
    key: "T"
    value {
      type: DT_FLOAT
    }
  }
  attr {
    key: "_class"
    value {
      list {
        s: "loc:@Upsample/Encode_feature/conv1d_6/kernel"
      }
    }
  }
}
node {
  name: "Upsample/Encode_feature/conv1d_6/kernel/Initializer/random_uniform"
  op: "Add"
  input: "Upsample/Encode_feature/conv1d_6/kernel/Initializer/random_uniform/mul"
  input: "Upsample/Encode_feature/conv1d_6/kernel/Initializer/random_uniform/min"
  attr {
    key: "T"
    value {
      type: DT_FLOAT
    }
  }
  attr {
    key: "_class"
    value {
      list {
        s: "loc:@Upsample/Encode_feature/conv1d_6/kernel"
      }
    }
  }
}
node {
  name: "Upsample/Encode_feature/conv1d_6/kernel"
  op: "VariableV2"
  attr {
    key: "_class"
    value {
      list {
        s: "loc:@Upsample/Encode_feature/conv1d_6/kernel"
      }
    }
  }
  attr {
    key: "container"
    value {
      s: ""
    }
  }
  attr {
    key: "dtype"
    value {
      type: DT_FLOAT
    }
  }
  attr {
    key: "shape"
    value {
      shape {
        dim {
          size: 1
        }
        dim {
          size: 128
        }
        dim {
          size: 128
        }
      }
    }
  }
  attr {
    key: "shared_name"
    value {
      s: ""
    }
  }
}
node {
  name: "Upsample/Encode_feature/conv1d_6/kernel/Assign"
  op: "Assign"
  input: "Upsample/Encode_feature/conv1d_6/kernel"
  input: "Upsample/Encode_feature/conv1d_6/kernel/Initializer/random_uniform"
  attr {
    key: "T"
    value {
      type: DT_FLOAT
    }
  }
  attr {
    key: "_class"
    value {
      list {
        s: "loc:@Upsample/Encode_feature/conv1d_6/kernel"
      }
    }
  }
  attr {
    key: "use_locking"
    value {
      b: true
    }
  }
  attr {
    key: "validate_shape"
    value {
      b: true
    }
  }
}
node {
  name: "Upsample/Encode_feature/conv1d_6/kernel/read"
  op: "Identity"
  input: "Upsample/Encode_feature/conv1d_6/kernel"
  attr {
    key: "T"
    value {
      type: DT_FLOAT
    }
  }
  attr {
    key: "_class"
    value {
      list {
        s: "loc:@Upsample/Encode_feature/conv1d_6/kernel"
      }
    }
  }
}
node {
  name: "Upsample/Encode_feature/conv1d_6/bias/Initializer/zeros"
  op: "Const"
  attr {
    key: "_class"
    value {
      list {
        s: "loc:@Upsample/Encode_feature/conv1d_6/bias"
      }
    }
  }
  attr {
    key: "dtype"
    value {
      type: DT_FLOAT
    }
  }
  attr {
    key: "value"
    value {
      tensor {
        dtype: DT_FLOAT
        tensor_shape {
          dim {
            size: 128
          }
        }
        float_val: 0.0
      }
    }
  }
}
node {
  name: "Upsample/Encode_feature/conv1d_6/bias"
  op: "VariableV2"
  attr {
    key: "_class"
    value {
      list {
        s: "loc:@Upsample/Encode_feature/conv1d_6/bias"
      }
    }
  }
  attr {
    key: "container"
    value {
      s: ""
    }
  }
  attr {
    key: "dtype"
    value {
      type: DT_FLOAT
    }
  }
  attr {
    key: "shape"
    value {
      shape {
        dim {
          size: 128
        }
      }
    }
  }
  attr {
    key: "shared_name"
    value {
      s: ""
    }
  }
}
node {
  name: "Upsample/Encode_feature/conv1d_6/bias/Assign"
  op: "Assign"
  input: "Upsample/Encode_feature/conv1d_6/bias"
  input: "Upsample/Encode_feature/conv1d_6/bias/Initializer/zeros"
  attr {
    key: "T"
    value {
      type: DT_FLOAT
    }
  }
  attr {
    key: "_class"
    value {
      list {
        s: "loc:@Upsample/Encode_feature/conv1d_6/bias"
      }
    }
  }
  attr {
    key: "use_locking"
    value {
      b: true
    }
  }
  attr {
    key: "validate_shape"
    value {
      b: true
    }
  }
}
node {
  name: "Upsample/Encode_feature/conv1d_6/bias/read"
  op: "Identity"
  input: "Upsample/Encode_feature/conv1d_6/bias"
  attr {
    key: "T"
    value {
      type: DT_FLOAT
    }
  }
  attr {
    key: "_class"
    value {
      list {
        s: "loc:@Upsample/Encode_feature/conv1d_6/bias"
      }
    }
  }
}
node {
  name: "Upsample/Encode_feature/conv1d_6/dilation_rate"
  op: "Const"
  attr {
    key: "dtype"
    value {
      type: DT_INT32
    }
  }
  attr {
    key: "value"
    value {
      tensor {
        dtype: DT_INT32
        tensor_shape {
          dim {
            size: 1
          }
        }
        int_val: 1
      }
    }
  }
}
node {
  name: "Upsample/Encode_feature/conv1d_6/conv1d/ExpandDims/dim"
  op: "Const"
  attr {
    key: "dtype"
    value {
      type: DT_INT32
    }
  }
  attr {
    key: "value"
    value {
      tensor {
        dtype: DT_INT32
        tensor_shape {
        }
        int_val: 1
      }
    }
  }
}
node {
  name: "Upsample/Encode_feature/conv1d_6/conv1d/ExpandDims"
  op: "ExpandDims"
  input: "Upsample/Deconvolution/Squeeze"
  input: "Upsample/Encode_feature/conv1d_6/conv1d/ExpandDims/dim"
  attr {
    key: "T"
    value {
      type: DT_FLOAT
    }
  }
  attr {
    key: "Tdim"
    value {
      type: DT_INT32
    }
  }
}
node {
  name: "Upsample/Encode_feature/conv1d_6/conv1d/ExpandDims_1/dim"
  op: "Const"
  attr {
    key: "dtype"
    value {
      type: DT_INT32
    }
  }
  attr {
    key: "value"
    value {
      tensor {
        dtype: DT_INT32
        tensor_shape {
        }
        int_val: 0
      }
    }
  }
}
node {
  name: "Upsample/Encode_feature/conv1d_6/conv1d/ExpandDims_1"
  op: "ExpandDims"
  input: "Upsample/Encode_feature/conv1d_6/kernel/read"
  input: "Upsample/Encode_feature/conv1d_6/conv1d/ExpandDims_1/dim"
  attr {
    key: "T"
    value {
      type: DT_FLOAT
    }
  }
  attr {
    key: "Tdim"
    value {
      type: DT_INT32
    }
  }
}
node {
  name: "Upsample/Encode_feature/conv1d_6/conv1d/Conv2D"
  op: "Conv2D"
  input: "Upsample/Encode_feature/conv1d_6/conv1d/ExpandDims"
  input: "Upsample/Encode_feature/conv1d_6/conv1d/ExpandDims_1"
  attr {
    key: "T"
    value {
      type: DT_FLOAT
    }
  }
  attr {
    key: "data_format"
    value {
      s: "NHWC"
    }
  }
  attr {
    key: "dilations"
    value {
      list {
        i: 1
        i: 1
        i: 1
        i: 1
      }
    }
  }
  attr {
    key: "padding"
    value {
      s: "VALID"
    }
  }
  attr {
    key: "strides"
    value {
      list {
        i: 1
        i: 1
        i: 1
        i: 1
      }
    }
  }
  attr {
    key: "use_cudnn_on_gpu"
    value {
      b: true
    }
  }
}
node {
  name: "Upsample/Encode_feature/conv1d_6/conv1d/Squeeze"
  op: "Squeeze"
  input: "Upsample/Encode_feature/conv1d_6/conv1d/Conv2D"
  attr {
    key: "T"
    value {
      type: DT_FLOAT
    }
  }
  attr {
    key: "squeeze_dims"
    value {
      list {
        i: 1
      }
    }
  }
}
node {
  name: "Upsample/Encode_feature/conv1d_6/BiasAdd"
  op: "BiasAdd"
  input: "Upsample/Encode_feature/conv1d_6/conv1d/Squeeze"
  input: "Upsample/Encode_feature/conv1d_6/bias/read"
  attr {
    key: "T"
    value {
      type: DT_FLOAT
    }
  }
  attr {
    key: "data_format"
    value {
      s: "NHWC"
    }
  }
}
node {
  name: "Upsample/Encode_feature/conv1d_7/kernel/Initializer/random_uniform/shape"
  op: "Const"
  attr {
    key: "_class"
    value {
      list {
        s: "loc:@Upsample/Encode_feature/conv1d_7/kernel"
      }
    }
  }
  attr {
    key: "dtype"
    value {
      type: DT_INT32
    }
  }
  attr {
    key: "value"
    value {
      tensor {
        dtype: DT_INT32
        tensor_shape {
          dim {
            size: 3
          }
        }
        tensor_content: "\001\000\000\000\200\000\000\000\200\000\000\000"
      }
    }
  }
}
node {
  name: "Upsample/Encode_feature/conv1d_7/kernel/Initializer/random_uniform/min"
  op: "Const"
  attr {
    key: "_class"
    value {
      list {
        s: "loc:@Upsample/Encode_feature/conv1d_7/kernel"
      }
    }
  }
  attr {
    key: "dtype"
    value {
      type: DT_FLOAT
    }
  }
  attr {
    key: "value"
    value {
      tensor {
        dtype: DT_FLOAT
        tensor_shape {
        }
        float_val: -0.1530931144952774
      }
    }
  }
}
node {
  name: "Upsample/Encode_feature/conv1d_7/kernel/Initializer/random_uniform/max"
  op: "Const"
  attr {
    key: "_class"
    value {
      list {
        s: "loc:@Upsample/Encode_feature/conv1d_7/kernel"
      }
    }
  }
  attr {
    key: "dtype"
    value {
      type: DT_FLOAT
    }
  }
  attr {
    key: "value"
    value {
      tensor {
        dtype: DT_FLOAT
        tensor_shape {
        }
        float_val: 0.1530931144952774
      }
    }
  }
}
node {
  name: "Upsample/Encode_feature/conv1d_7/kernel/Initializer/random_uniform/RandomUniform"
  op: "RandomUniform"
  input: "Upsample/Encode_feature/conv1d_7/kernel/Initializer/random_uniform/shape"
  attr {
    key: "T"
    value {
      type: DT_INT32
    }
  }
  attr {
    key: "_class"
    value {
      list {
        s: "loc:@Upsample/Encode_feature/conv1d_7/kernel"
      }
    }
  }
  attr {
    key: "dtype"
    value {
      type: DT_FLOAT
    }
  }
  attr {
    key: "seed"
    value {
      i: 0
    }
  }
  attr {
    key: "seed2"
    value {
      i: 0
    }
  }
}
node {
  name: "Upsample/Encode_feature/conv1d_7/kernel/Initializer/random_uniform/sub"
  op: "Sub"
  input: "Upsample/Encode_feature/conv1d_7/kernel/Initializer/random_uniform/max"
  input: "Upsample/Encode_feature/conv1d_7/kernel/Initializer/random_uniform/min"
  attr {
    key: "T"
    value {
      type: DT_FLOAT
    }
  }
  attr {
    key: "_class"
    value {
      list {
        s: "loc:@Upsample/Encode_feature/conv1d_7/kernel"
      }
    }
  }
}
node {
  name: "Upsample/Encode_feature/conv1d_7/kernel/Initializer/random_uniform/mul"
  op: "Mul"
  input: "Upsample/Encode_feature/conv1d_7/kernel/Initializer/random_uniform/RandomUniform"
  input: "Upsample/Encode_feature/conv1d_7/kernel/Initializer/random_uniform/sub"
  attr {
    key: "T"
    value {
      type: DT_FLOAT
    }
  }
  attr {
    key: "_class"
    value {
      list {
        s: "loc:@Upsample/Encode_feature/conv1d_7/kernel"
      }
    }
  }
}
node {
  name: "Upsample/Encode_feature/conv1d_7/kernel/Initializer/random_uniform"
  op: "Add"
  input: "Upsample/Encode_feature/conv1d_7/kernel/Initializer/random_uniform/mul"
  input: "Upsample/Encode_feature/conv1d_7/kernel/Initializer/random_uniform/min"
  attr {
    key: "T"
    value {
      type: DT_FLOAT
    }
  }
  attr {
    key: "_class"
    value {
      list {
        s: "loc:@Upsample/Encode_feature/conv1d_7/kernel"
      }
    }
  }
}
node {
  name: "Upsample/Encode_feature/conv1d_7/kernel"
  op: "VariableV2"
  attr {
    key: "_class"
    value {
      list {
        s: "loc:@Upsample/Encode_feature/conv1d_7/kernel"
      }
    }
  }
  attr {
    key: "container"
    value {
      s: ""
    }
  }
  attr {
    key: "dtype"
    value {
      type: DT_FLOAT
    }
  }
  attr {
    key: "shape"
    value {
      shape {
        dim {
          size: 1
        }
        dim {
          size: 128
        }
        dim {
          size: 128
        }
      }
    }
  }
  attr {
    key: "shared_name"
    value {
      s: ""
    }
  }
}
node {
  name: "Upsample/Encode_feature/conv1d_7/kernel/Assign"
  op: "Assign"
  input: "Upsample/Encode_feature/conv1d_7/kernel"
  input: "Upsample/Encode_feature/conv1d_7/kernel/Initializer/random_uniform"
  attr {
    key: "T"
    value {
      type: DT_FLOAT
    }
  }
  attr {
    key: "_class"
    value {
      list {
        s: "loc:@Upsample/Encode_feature/conv1d_7/kernel"
      }
    }
  }
  attr {
    key: "use_locking"
    value {
      b: true
    }
  }
  attr {
    key: "validate_shape"
    value {
      b: true
    }
  }
}
node {
  name: "Upsample/Encode_feature/conv1d_7/kernel/read"
  op: "Identity"
  input: "Upsample/Encode_feature/conv1d_7/kernel"
  attr {
    key: "T"
    value {
      type: DT_FLOAT
    }
  }
  attr {
    key: "_class"
    value {
      list {
        s: "loc:@Upsample/Encode_feature/conv1d_7/kernel"
      }
    }
  }
}
node {
  name: "Upsample/Encode_feature/conv1d_7/bias/Initializer/zeros"
  op: "Const"
  attr {
    key: "_class"
    value {
      list {
        s: "loc:@Upsample/Encode_feature/conv1d_7/bias"
      }
    }
  }
  attr {
    key: "dtype"
    value {
      type: DT_FLOAT
    }
  }
  attr {
    key: "value"
    value {
      tensor {
        dtype: DT_FLOAT
        tensor_shape {
          dim {
            size: 128
          }
        }
        float_val: 0.0
      }
    }
  }
}
node {
  name: "Upsample/Encode_feature/conv1d_7/bias"
  op: "VariableV2"
  attr {
    key: "_class"
    value {
      list {
        s: "loc:@Upsample/Encode_feature/conv1d_7/bias"
      }
    }
  }
  attr {
    key: "container"
    value {
      s: ""
    }
  }
  attr {
    key: "dtype"
    value {
      type: DT_FLOAT
    }
  }
  attr {
    key: "shape"
    value {
      shape {
        dim {
          size: 128
        }
      }
    }
  }
  attr {
    key: "shared_name"
    value {
      s: ""
    }
  }
}
node {
  name: "Upsample/Encode_feature/conv1d_7/bias/Assign"
  op: "Assign"
  input: "Upsample/Encode_feature/conv1d_7/bias"
  input: "Upsample/Encode_feature/conv1d_7/bias/Initializer/zeros"
  attr {
    key: "T"
    value {
      type: DT_FLOAT
    }
  }
  attr {
    key: "_class"
    value {
      list {
        s: "loc:@Upsample/Encode_feature/conv1d_7/bias"
      }
    }
  }
  attr {
    key: "use_locking"
    value {
      b: true
    }
  }
  attr {
    key: "validate_shape"
    value {
      b: true
    }
  }
}
node {
  name: "Upsample/Encode_feature/conv1d_7/bias/read"
  op: "Identity"
  input: "Upsample/Encode_feature/conv1d_7/bias"
  attr {
    key: "T"
    value {
      type: DT_FLOAT
    }
  }
  attr {
    key: "_class"
    value {
      list {
        s: "loc:@Upsample/Encode_feature/conv1d_7/bias"
      }
    }
  }
}
node {
  name: "Upsample/Encode_feature/conv1d_7/dilation_rate"
  op: "Const"
  attr {
    key: "dtype"
    value {
      type: DT_INT32
    }
  }
  attr {
    key: "value"
    value {
      tensor {
        dtype: DT_INT32
        tensor_shape {
          dim {
            size: 1
          }
        }
        int_val: 1
      }
    }
  }
}
node {
  name: "Upsample/Encode_feature/conv1d_7/conv1d/ExpandDims/dim"
  op: "Const"
  attr {
    key: "dtype"
    value {
      type: DT_INT32
    }
  }
  attr {
    key: "value"
    value {
      tensor {
        dtype: DT_INT32
        tensor_shape {
        }
        int_val: 1
      }
    }
  }
}
node {
  name: "Upsample/Encode_feature/conv1d_7/conv1d/ExpandDims"
  op: "ExpandDims"
  input: "Upsample/Deconvolution/Squeeze"
  input: "Upsample/Encode_feature/conv1d_7/conv1d/ExpandDims/dim"
  attr {
    key: "T"
    value {
      type: DT_FLOAT
    }
  }
  attr {
    key: "Tdim"
    value {
      type: DT_INT32
    }
  }
}
node {
  name: "Upsample/Encode_feature/conv1d_7/conv1d/ExpandDims_1/dim"
  op: "Const"
  attr {
    key: "dtype"
    value {
      type: DT_INT32
    }
  }
  attr {
    key: "value"
    value {
      tensor {
        dtype: DT_INT32
        tensor_shape {
        }
        int_val: 0
      }
    }
  }
}
node {
  name: "Upsample/Encode_feature/conv1d_7/conv1d/ExpandDims_1"
  op: "ExpandDims"
  input: "Upsample/Encode_feature/conv1d_7/kernel/read"
  input: "Upsample/Encode_feature/conv1d_7/conv1d/ExpandDims_1/dim"
  attr {
    key: "T"
    value {
      type: DT_FLOAT
    }
  }
  attr {
    key: "Tdim"
    value {
      type: DT_INT32
    }
  }
}
node {
  name: "Upsample/Encode_feature/conv1d_7/conv1d/Conv2D"
  op: "Conv2D"
  input: "Upsample/Encode_feature/conv1d_7/conv1d/ExpandDims"
  input: "Upsample/Encode_feature/conv1d_7/conv1d/ExpandDims_1"
  attr {
    key: "T"
    value {
      type: DT_FLOAT
    }
  }
  attr {
    key: "data_format"
    value {
      s: "NHWC"
    }
  }
  attr {
    key: "dilations"
    value {
      list {
        i: 1
        i: 1
        i: 1
        i: 1
      }
    }
  }
  attr {
    key: "padding"
    value {
      s: "VALID"
    }
  }
  attr {
    key: "strides"
    value {
      list {
        i: 1
        i: 1
        i: 1
        i: 1
      }
    }
  }
  attr {
    key: "use_cudnn_on_gpu"
    value {
      b: true
    }
  }
}
node {
  name: "Upsample/Encode_feature/conv1d_7/conv1d/Squeeze"
  op: "Squeeze"
  input: "Upsample/Encode_feature/conv1d_7/conv1d/Conv2D"
  attr {
    key: "T"
    value {
      type: DT_FLOAT
    }
  }
  attr {
    key: "squeeze_dims"
    value {
      list {
        i: 1
      }
    }
  }
}
node {
  name: "Upsample/Encode_feature/conv1d_7/BiasAdd"
  op: "BiasAdd"
  input: "Upsample/Encode_feature/conv1d_7/conv1d/Squeeze"
  input: "Upsample/Encode_feature/conv1d_7/bias/read"
  attr {
    key: "T"
    value {
      type: DT_FLOAT
    }
  }
  attr {
    key: "data_format"
    value {
      s: "NHWC"
    }
  }
}
node {
  name: "Upsample/Encode_feature/conv1d_8/kernel/Initializer/random_uniform/shape"
  op: "Const"
  attr {
    key: "_class"
    value {
      list {
        s: "loc:@Upsample/Encode_feature/conv1d_8/kernel"
      }
    }
  }
  attr {
    key: "dtype"
    value {
      type: DT_INT32
    }
  }
  attr {
    key: "value"
    value {
      tensor {
        dtype: DT_INT32
        tensor_shape {
          dim {
            size: 3
          }
        }
        tensor_content: "\001\000\000\000\200\000\000\000\200\000\000\000"
      }
    }
  }
}
node {
  name: "Upsample/Encode_feature/conv1d_8/kernel/Initializer/random_uniform/min"
  op: "Const"
  attr {
    key: "_class"
    value {
      list {
        s: "loc:@Upsample/Encode_feature/conv1d_8/kernel"
      }
    }
  }
  attr {
    key: "dtype"
    value {
      type: DT_FLOAT
    }
  }
  attr {
    key: "value"
    value {
      tensor {
        dtype: DT_FLOAT
        tensor_shape {
        }
        float_val: -0.1530931144952774
      }
    }
  }
}
node {
  name: "Upsample/Encode_feature/conv1d_8/kernel/Initializer/random_uniform/max"
  op: "Const"
  attr {
    key: "_class"
    value {
      list {
        s: "loc:@Upsample/Encode_feature/conv1d_8/kernel"
      }
    }
  }
  attr {
    key: "dtype"
    value {
      type: DT_FLOAT
    }
  }
  attr {
    key: "value"
    value {
      tensor {
        dtype: DT_FLOAT
        tensor_shape {
        }
        float_val: 0.1530931144952774
      }
    }
  }
}
node {
  name: "Upsample/Encode_feature/conv1d_8/kernel/Initializer/random_uniform/RandomUniform"
  op: "RandomUniform"
  input: "Upsample/Encode_feature/conv1d_8/kernel/Initializer/random_uniform/shape"
  attr {
    key: "T"
    value {
      type: DT_INT32
    }
  }
  attr {
    key: "_class"
    value {
      list {
        s: "loc:@Upsample/Encode_feature/conv1d_8/kernel"
      }
    }
  }
  attr {
    key: "dtype"
    value {
      type: DT_FLOAT
    }
  }
  attr {
    key: "seed"
    value {
      i: 0
    }
  }
  attr {
    key: "seed2"
    value {
      i: 0
    }
  }
}
node {
  name: "Upsample/Encode_feature/conv1d_8/kernel/Initializer/random_uniform/sub"
  op: "Sub"
  input: "Upsample/Encode_feature/conv1d_8/kernel/Initializer/random_uniform/max"
  input: "Upsample/Encode_feature/conv1d_8/kernel/Initializer/random_uniform/min"
  attr {
    key: "T"
    value {
      type: DT_FLOAT
    }
  }
  attr {
    key: "_class"
    value {
      list {
        s: "loc:@Upsample/Encode_feature/conv1d_8/kernel"
      }
    }
  }
}
node {
  name: "Upsample/Encode_feature/conv1d_8/kernel/Initializer/random_uniform/mul"
  op: "Mul"
  input: "Upsample/Encode_feature/conv1d_8/kernel/Initializer/random_uniform/RandomUniform"
  input: "Upsample/Encode_feature/conv1d_8/kernel/Initializer/random_uniform/sub"
  attr {
    key: "T"
    value {
      type: DT_FLOAT
    }
  }
  attr {
    key: "_class"
    value {
      list {
        s: "loc:@Upsample/Encode_feature/conv1d_8/kernel"
      }
    }
  }
}
node {
  name: "Upsample/Encode_feature/conv1d_8/kernel/Initializer/random_uniform"
  op: "Add"
  input: "Upsample/Encode_feature/conv1d_8/kernel/Initializer/random_uniform/mul"
  input: "Upsample/Encode_feature/conv1d_8/kernel/Initializer/random_uniform/min"
  attr {
    key: "T"
    value {
      type: DT_FLOAT
    }
  }
  attr {
    key: "_class"
    value {
      list {
        s: "loc:@Upsample/Encode_feature/conv1d_8/kernel"
      }
    }
  }
}
node {
  name: "Upsample/Encode_feature/conv1d_8/kernel"
  op: "VariableV2"
  attr {
    key: "_class"
    value {
      list {
        s: "loc:@Upsample/Encode_feature/conv1d_8/kernel"
      }
    }
  }
  attr {
    key: "container"
    value {
      s: ""
    }
  }
  attr {
    key: "dtype"
    value {
      type: DT_FLOAT
    }
  }
  attr {
    key: "shape"
    value {
      shape {
        dim {
          size: 1
        }
        dim {
          size: 128
        }
        dim {
          size: 128
        }
      }
    }
  }
  attr {
    key: "shared_name"
    value {
      s: ""
    }
  }
}
node {
  name: "Upsample/Encode_feature/conv1d_8/kernel/Assign"
  op: "Assign"
  input: "Upsample/Encode_feature/conv1d_8/kernel"
  input: "Upsample/Encode_feature/conv1d_8/kernel/Initializer/random_uniform"
  attr {
    key: "T"
    value {
      type: DT_FLOAT
    }
  }
  attr {
    key: "_class"
    value {
      list {
        s: "loc:@Upsample/Encode_feature/conv1d_8/kernel"
      }
    }
  }
  attr {
    key: "use_locking"
    value {
      b: true
    }
  }
  attr {
    key: "validate_shape"
    value {
      b: true
    }
  }
}
node {
  name: "Upsample/Encode_feature/conv1d_8/kernel/read"
  op: "Identity"
  input: "Upsample/Encode_feature/conv1d_8/kernel"
  attr {
    key: "T"
    value {
      type: DT_FLOAT
    }
  }
  attr {
    key: "_class"
    value {
      list {
        s: "loc:@Upsample/Encode_feature/conv1d_8/kernel"
      }
    }
  }
}
node {
  name: "Upsample/Encode_feature/conv1d_8/bias/Initializer/zeros"
  op: "Const"
  attr {
    key: "_class"
    value {
      list {
        s: "loc:@Upsample/Encode_feature/conv1d_8/bias"
      }
    }
  }
  attr {
    key: "dtype"
    value {
      type: DT_FLOAT
    }
  }
  attr {
    key: "value"
    value {
      tensor {
        dtype: DT_FLOAT
        tensor_shape {
          dim {
            size: 128
          }
        }
        float_val: 0.0
      }
    }
  }
}
node {
  name: "Upsample/Encode_feature/conv1d_8/bias"
  op: "VariableV2"
  attr {
    key: "_class"
    value {
      list {
        s: "loc:@Upsample/Encode_feature/conv1d_8/bias"
      }
    }
  }
  attr {
    key: "container"
    value {
      s: ""
    }
  }
  attr {
    key: "dtype"
    value {
      type: DT_FLOAT
    }
  }
  attr {
    key: "shape"
    value {
      shape {
        dim {
          size: 128
        }
      }
    }
  }
  attr {
    key: "shared_name"
    value {
      s: ""
    }
  }
}
node {
  name: "Upsample/Encode_feature/conv1d_8/bias/Assign"
  op: "Assign"
  input: "Upsample/Encode_feature/conv1d_8/bias"
  input: "Upsample/Encode_feature/conv1d_8/bias/Initializer/zeros"
  attr {
    key: "T"
    value {
      type: DT_FLOAT
    }
  }
  attr {
    key: "_class"
    value {
      list {
        s: "loc:@Upsample/Encode_feature/conv1d_8/bias"
      }
    }
  }
  attr {
    key: "use_locking"
    value {
      b: true
    }
  }
  attr {
    key: "validate_shape"
    value {
      b: true
    }
  }
}
node {
  name: "Upsample/Encode_feature/conv1d_8/bias/read"
  op: "Identity"
  input: "Upsample/Encode_feature/conv1d_8/bias"
  attr {
    key: "T"
    value {
      type: DT_FLOAT
    }
  }
  attr {
    key: "_class"
    value {
      list {
        s: "loc:@Upsample/Encode_feature/conv1d_8/bias"
      }
    }
  }
}
node {
  name: "Upsample/Encode_feature/conv1d_8/dilation_rate"
  op: "Const"
  attr {
    key: "dtype"
    value {
      type: DT_INT32
    }
  }
  attr {
    key: "value"
    value {
      tensor {
        dtype: DT_INT32
        tensor_shape {
          dim {
            size: 1
          }
        }
        int_val: 1
      }
    }
  }
}
node {
  name: "Upsample/Encode_feature/conv1d_8/conv1d/ExpandDims/dim"
  op: "Const"
  attr {
    key: "dtype"
    value {
      type: DT_INT32
    }
  }
  attr {
    key: "value"
    value {
      tensor {
        dtype: DT_INT32
        tensor_shape {
        }
        int_val: 1
      }
    }
  }
}
node {
  name: "Upsample/Encode_feature/conv1d_8/conv1d/ExpandDims"
  op: "ExpandDims"
  input: "Upsample/Deconvolution/Squeeze"
  input: "Upsample/Encode_feature/conv1d_8/conv1d/ExpandDims/dim"
  attr {
    key: "T"
    value {
      type: DT_FLOAT
    }
  }
  attr {
    key: "Tdim"
    value {
      type: DT_INT32
    }
  }
}
node {
  name: "Upsample/Encode_feature/conv1d_8/conv1d/ExpandDims_1/dim"
  op: "Const"
  attr {
    key: "dtype"
    value {
      type: DT_INT32
    }
  }
  attr {
    key: "value"
    value {
      tensor {
        dtype: DT_INT32
        tensor_shape {
        }
        int_val: 0
      }
    }
  }
}
node {
  name: "Upsample/Encode_feature/conv1d_8/conv1d/ExpandDims_1"
  op: "ExpandDims"
  input: "Upsample/Encode_feature/conv1d_8/kernel/read"
  input: "Upsample/Encode_feature/conv1d_8/conv1d/ExpandDims_1/dim"
  attr {
    key: "T"
    value {
      type: DT_FLOAT
    }
  }
  attr {
    key: "Tdim"
    value {
      type: DT_INT32
    }
  }
}
node {
  name: "Upsample/Encode_feature/conv1d_8/conv1d/Conv2D"
  op: "Conv2D"
  input: "Upsample/Encode_feature/conv1d_8/conv1d/ExpandDims"
  input: "Upsample/Encode_feature/conv1d_8/conv1d/ExpandDims_1"
  attr {
    key: "T"
    value {
      type: DT_FLOAT
    }
  }
  attr {
    key: "data_format"
    value {
      s: "NHWC"
    }
  }
  attr {
    key: "dilations"
    value {
      list {
        i: 1
        i: 1
        i: 1
        i: 1
      }
    }
  }
  attr {
    key: "padding"
    value {
      s: "VALID"
    }
  }
  attr {
    key: "strides"
    value {
      list {
        i: 1
        i: 1
        i: 1
        i: 1
      }
    }
  }
  attr {
    key: "use_cudnn_on_gpu"
    value {
      b: true
    }
  }
}
node {
  name: "Upsample/Encode_feature/conv1d_8/conv1d/Squeeze"
  op: "Squeeze"
  input: "Upsample/Encode_feature/conv1d_8/conv1d/Conv2D"
  attr {
    key: "T"
    value {
      type: DT_FLOAT
    }
  }
  attr {
    key: "squeeze_dims"
    value {
      list {
        i: 1
      }
    }
  }
}
node {
  name: "Upsample/Encode_feature/conv1d_8/BiasAdd"
  op: "BiasAdd"
  input: "Upsample/Encode_feature/conv1d_8/conv1d/Squeeze"
  input: "Upsample/Encode_feature/conv1d_8/bias/read"
  attr {
    key: "T"
    value {
      type: DT_FLOAT
    }
  }
  attr {
    key: "data_format"
    value {
      s: "NHWC"
    }
  }
}
node {
  name: "Upsample/Encode_feature/conv1d_9/kernel/Initializer/random_uniform/shape"
  op: "Const"
  attr {
    key: "_class"
    value {
      list {
        s: "loc:@Upsample/Encode_feature/conv1d_9/kernel"
      }
    }
  }
  attr {
    key: "dtype"
    value {
      type: DT_INT32
    }
  }
  attr {
    key: "value"
    value {
      tensor {
        dtype: DT_INT32
        tensor_shape {
          dim {
            size: 3
          }
        }
        tensor_content: "\001\000\000\000\200\000\000\000\200\000\000\000"
      }
    }
  }
}
node {
  name: "Upsample/Encode_feature/conv1d_9/kernel/Initializer/random_uniform/min"
  op: "Const"
  attr {
    key: "_class"
    value {
      list {
        s: "loc:@Upsample/Encode_feature/conv1d_9/kernel"
      }
    }
  }
  attr {
    key: "dtype"
    value {
      type: DT_FLOAT
    }
  }
  attr {
    key: "value"
    value {
      tensor {
        dtype: DT_FLOAT
        tensor_shape {
        }
        float_val: -0.1530931144952774
      }
    }
  }
}
node {
  name: "Upsample/Encode_feature/conv1d_9/kernel/Initializer/random_uniform/max"
  op: "Const"
  attr {
    key: "_class"
    value {
      list {
        s: "loc:@Upsample/Encode_feature/conv1d_9/kernel"
      }
    }
  }
  attr {
    key: "dtype"
    value {
      type: DT_FLOAT
    }
  }
  attr {
    key: "value"
    value {
      tensor {
        dtype: DT_FLOAT
        tensor_shape {
        }
        float_val: 0.1530931144952774
      }
    }
  }
}
node {
  name: "Upsample/Encode_feature/conv1d_9/kernel/Initializer/random_uniform/RandomUniform"
  op: "RandomUniform"
  input: "Upsample/Encode_feature/conv1d_9/kernel/Initializer/random_uniform/shape"
  attr {
    key: "T"
    value {
      type: DT_INT32
    }
  }
  attr {
    key: "_class"
    value {
      list {
        s: "loc:@Upsample/Encode_feature/conv1d_9/kernel"
      }
    }
  }
  attr {
    key: "dtype"
    value {
      type: DT_FLOAT
    }
  }
  attr {
    key: "seed"
    value {
      i: 0
    }
  }
  attr {
    key: "seed2"
    value {
      i: 0
    }
  }
}
node {
  name: "Upsample/Encode_feature/conv1d_9/kernel/Initializer/random_uniform/sub"
  op: "Sub"
  input: "Upsample/Encode_feature/conv1d_9/kernel/Initializer/random_uniform/max"
  input: "Upsample/Encode_feature/conv1d_9/kernel/Initializer/random_uniform/min"
  attr {
    key: "T"
    value {
      type: DT_FLOAT
    }
  }
  attr {
    key: "_class"
    value {
      list {
        s: "loc:@Upsample/Encode_feature/conv1d_9/kernel"
      }
    }
  }
}
node {
  name: "Upsample/Encode_feature/conv1d_9/kernel/Initializer/random_uniform/mul"
  op: "Mul"
  input: "Upsample/Encode_feature/conv1d_9/kernel/Initializer/random_uniform/RandomUniform"
  input: "Upsample/Encode_feature/conv1d_9/kernel/Initializer/random_uniform/sub"
  attr {
    key: "T"
    value {
      type: DT_FLOAT
    }
  }
  attr {
    key: "_class"
    value {
      list {
        s: "loc:@Upsample/Encode_feature/conv1d_9/kernel"
      }
    }
  }
}
node {
  name: "Upsample/Encode_feature/conv1d_9/kernel/Initializer/random_uniform"
  op: "Add"
  input: "Upsample/Encode_feature/conv1d_9/kernel/Initializer/random_uniform/mul"
  input: "Upsample/Encode_feature/conv1d_9/kernel/Initializer/random_uniform/min"
  attr {
    key: "T"
    value {
      type: DT_FLOAT
    }
  }
  attr {
    key: "_class"
    value {
      list {
        s: "loc:@Upsample/Encode_feature/conv1d_9/kernel"
      }
    }
  }
}
node {
  name: "Upsample/Encode_feature/conv1d_9/kernel"
  op: "VariableV2"
  attr {
    key: "_class"
    value {
      list {
        s: "loc:@Upsample/Encode_feature/conv1d_9/kernel"
      }
    }
  }
  attr {
    key: "container"
    value {
      s: ""
    }
  }
  attr {
    key: "dtype"
    value {
      type: DT_FLOAT
    }
  }
  attr {
    key: "shape"
    value {
      shape {
        dim {
          size: 1
        }
        dim {
          size: 128
        }
        dim {
          size: 128
        }
      }
    }
  }
  attr {
    key: "shared_name"
    value {
      s: ""
    }
  }
}
node {
  name: "Upsample/Encode_feature/conv1d_9/kernel/Assign"
  op: "Assign"
  input: "Upsample/Encode_feature/conv1d_9/kernel"
  input: "Upsample/Encode_feature/conv1d_9/kernel/Initializer/random_uniform"
  attr {
    key: "T"
    value {
      type: DT_FLOAT
    }
  }
  attr {
    key: "_class"
    value {
      list {
        s: "loc:@Upsample/Encode_feature/conv1d_9/kernel"
      }
    }
  }
  attr {
    key: "use_locking"
    value {
      b: true
    }
  }
  attr {
    key: "validate_shape"
    value {
      b: true
    }
  }
}
node {
  name: "Upsample/Encode_feature/conv1d_9/kernel/read"
  op: "Identity"
  input: "Upsample/Encode_feature/conv1d_9/kernel"
  attr {
    key: "T"
    value {
      type: DT_FLOAT
    }
  }
  attr {
    key: "_class"
    value {
      list {
        s: "loc:@Upsample/Encode_feature/conv1d_9/kernel"
      }
    }
  }
}
node {
  name: "Upsample/Encode_feature/conv1d_9/bias/Initializer/zeros"
  op: "Const"
  attr {
    key: "_class"
    value {
      list {
        s: "loc:@Upsample/Encode_feature/conv1d_9/bias"
      }
    }
  }
  attr {
    key: "dtype"
    value {
      type: DT_FLOAT
    }
  }
  attr {
    key: "value"
    value {
      tensor {
        dtype: DT_FLOAT
        tensor_shape {
          dim {
            size: 128
          }
        }
        float_val: 0.0
      }
    }
  }
}
node {
  name: "Upsample/Encode_feature/conv1d_9/bias"
  op: "VariableV2"
  attr {
    key: "_class"
    value {
      list {
        s: "loc:@Upsample/Encode_feature/conv1d_9/bias"
      }
    }
  }
  attr {
    key: "container"
    value {
      s: ""
    }
  }
  attr {
    key: "dtype"
    value {
      type: DT_FLOAT
    }
  }
  attr {
    key: "shape"
    value {
      shape {
        dim {
          size: 128
        }
      }
    }
  }
  attr {
    key: "shared_name"
    value {
      s: ""
    }
  }
}
node {
  name: "Upsample/Encode_feature/conv1d_9/bias/Assign"
  op: "Assign"
  input: "Upsample/Encode_feature/conv1d_9/bias"
  input: "Upsample/Encode_feature/conv1d_9/bias/Initializer/zeros"
  attr {
    key: "T"
    value {
      type: DT_FLOAT
    }
  }
  attr {
    key: "_class"
    value {
      list {
        s: "loc:@Upsample/Encode_feature/conv1d_9/bias"
      }
    }
  }
  attr {
    key: "use_locking"
    value {
      b: true
    }
  }
  attr {
    key: "validate_shape"
    value {
      b: true
    }
  }
}
node {
  name: "Upsample/Encode_feature/conv1d_9/bias/read"
  op: "Identity"
  input: "Upsample/Encode_feature/conv1d_9/bias"
  attr {
    key: "T"
    value {
      type: DT_FLOAT
    }
  }
  attr {
    key: "_class"
    value {
      list {
        s: "loc:@Upsample/Encode_feature/conv1d_9/bias"
      }
    }
  }
}
node {
  name: "Upsample/Encode_feature/conv1d_9/dilation_rate"
  op: "Const"
  attr {
    key: "dtype"
    value {
      type: DT_INT32
    }
  }
  attr {
    key: "value"
    value {
      tensor {
        dtype: DT_INT32
        tensor_shape {
          dim {
            size: 1
          }
        }
        int_val: 1
      }
    }
  }
}
node {
  name: "Upsample/Encode_feature/conv1d_9/conv1d/ExpandDims/dim"
  op: "Const"
  attr {
    key: "dtype"
    value {
      type: DT_INT32
    }
  }
  attr {
    key: "value"
    value {
      tensor {
        dtype: DT_INT32
        tensor_shape {
        }
        int_val: 1
      }
    }
  }
}
node {
  name: "Upsample/Encode_feature/conv1d_9/conv1d/ExpandDims"
  op: "ExpandDims"
  input: "Upsample/Deconvolution/Squeeze"
  input: "Upsample/Encode_feature/conv1d_9/conv1d/ExpandDims/dim"
  attr {
    key: "T"
    value {
      type: DT_FLOAT
    }
  }
  attr {
    key: "Tdim"
    value {
      type: DT_INT32
    }
  }
}
node {
  name: "Upsample/Encode_feature/conv1d_9/conv1d/ExpandDims_1/dim"
  op: "Const"
  attr {
    key: "dtype"
    value {
      type: DT_INT32
    }
  }
  attr {
    key: "value"
    value {
      tensor {
        dtype: DT_INT32
        tensor_shape {
        }
        int_val: 0
      }
    }
  }
}
node {
  name: "Upsample/Encode_feature/conv1d_9/conv1d/ExpandDims_1"
  op: "ExpandDims"
  input: "Upsample/Encode_feature/conv1d_9/kernel/read"
  input: "Upsample/Encode_feature/conv1d_9/conv1d/ExpandDims_1/dim"
  attr {
    key: "T"
    value {
      type: DT_FLOAT
    }
  }
  attr {
    key: "Tdim"
    value {
      type: DT_INT32
    }
  }
}
node {
  name: "Upsample/Encode_feature/conv1d_9/conv1d/Conv2D"
  op: "Conv2D"
  input: "Upsample/Encode_feature/conv1d_9/conv1d/ExpandDims"
  input: "Upsample/Encode_feature/conv1d_9/conv1d/ExpandDims_1"
  attr {
    key: "T"
    value {
      type: DT_FLOAT
    }
  }
  attr {
    key: "data_format"
    value {
      s: "NHWC"
    }
  }
  attr {
    key: "dilations"
    value {
      list {
        i: 1
        i: 1
        i: 1
        i: 1
      }
    }
  }
  attr {
    key: "padding"
    value {
      s: "VALID"
    }
  }
  attr {
    key: "strides"
    value {
      list {
        i: 1
        i: 1
        i: 1
        i: 1
      }
    }
  }
  attr {
    key: "use_cudnn_on_gpu"
    value {
      b: true
    }
  }
}
node {
  name: "Upsample/Encode_feature/conv1d_9/conv1d/Squeeze"
  op: "Squeeze"
  input: "Upsample/Encode_feature/conv1d_9/conv1d/Conv2D"
  attr {
    key: "T"
    value {
      type: DT_FLOAT
    }
  }
  attr {
    key: "squeeze_dims"
    value {
      list {
        i: 1
      }
    }
  }
}
node {
  name: "Upsample/Encode_feature/conv1d_9/BiasAdd"
  op: "BiasAdd"
  input: "Upsample/Encode_feature/conv1d_9/conv1d/Squeeze"
  input: "Upsample/Encode_feature/conv1d_9/bias/read"
  attr {
    key: "T"
    value {
      type: DT_FLOAT
    }
  }
  attr {
    key: "data_format"
    value {
      s: "NHWC"
    }
  }
}
node {
  name: "Upsample/Encode_feature/conv1d_10/kernel/Initializer/random_uniform/shape"
  op: "Const"
  attr {
    key: "_class"
    value {
      list {
        s: "loc:@Upsample/Encode_feature/conv1d_10/kernel"
      }
    }
  }
  attr {
    key: "dtype"
    value {
      type: DT_INT32
    }
  }
  attr {
    key: "value"
    value {
      tensor {
        dtype: DT_INT32
        tensor_shape {
          dim {
            size: 3
          }
        }
        tensor_content: "\001\000\000\000\200\000\000\000\200\000\000\000"
      }
    }
  }
}
node {
  name: "Upsample/Encode_feature/conv1d_10/kernel/Initializer/random_uniform/min"
  op: "Const"
  attr {
    key: "_class"
    value {
      list {
        s: "loc:@Upsample/Encode_feature/conv1d_10/kernel"
      }
    }
  }
  attr {
    key: "dtype"
    value {
      type: DT_FLOAT
    }
  }
  attr {
    key: "value"
    value {
      tensor {
        dtype: DT_FLOAT
        tensor_shape {
        }
        float_val: -0.1530931144952774
      }
    }
  }
}
node {
  name: "Upsample/Encode_feature/conv1d_10/kernel/Initializer/random_uniform/max"
  op: "Const"
  attr {
    key: "_class"
    value {
      list {
        s: "loc:@Upsample/Encode_feature/conv1d_10/kernel"
      }
    }
  }
  attr {
    key: "dtype"
    value {
      type: DT_FLOAT
    }
  }
  attr {
    key: "value"
    value {
      tensor {
        dtype: DT_FLOAT
        tensor_shape {
        }
        float_val: 0.1530931144952774
      }
    }
  }
}
node {
  name: "Upsample/Encode_feature/conv1d_10/kernel/Initializer/random_uniform/RandomUniform"
  op: "RandomUniform"
  input: "Upsample/Encode_feature/conv1d_10/kernel/Initializer/random_uniform/shape"
  attr {
    key: "T"
    value {
      type: DT_INT32
    }
  }
  attr {
    key: "_class"
    value {
      list {
        s: "loc:@Upsample/Encode_feature/conv1d_10/kernel"
      }
    }
  }
  attr {
    key: "dtype"
    value {
      type: DT_FLOAT
    }
  }
  attr {
    key: "seed"
    value {
      i: 0
    }
  }
  attr {
    key: "seed2"
    value {
      i: 0
    }
  }
}
node {
  name: "Upsample/Encode_feature/conv1d_10/kernel/Initializer/random_uniform/sub"
  op: "Sub"
  input: "Upsample/Encode_feature/conv1d_10/kernel/Initializer/random_uniform/max"
  input: "Upsample/Encode_feature/conv1d_10/kernel/Initializer/random_uniform/min"
  attr {
    key: "T"
    value {
      type: DT_FLOAT
    }
  }
  attr {
    key: "_class"
    value {
      list {
        s: "loc:@Upsample/Encode_feature/conv1d_10/kernel"
      }
    }
  }
}
node {
  name: "Upsample/Encode_feature/conv1d_10/kernel/Initializer/random_uniform/mul"
  op: "Mul"
  input: "Upsample/Encode_feature/conv1d_10/kernel/Initializer/random_uniform/RandomUniform"
  input: "Upsample/Encode_feature/conv1d_10/kernel/Initializer/random_uniform/sub"
  attr {
    key: "T"
    value {
      type: DT_FLOAT
    }
  }
  attr {
    key: "_class"
    value {
      list {
        s: "loc:@Upsample/Encode_feature/conv1d_10/kernel"
      }
    }
  }
}
node {
  name: "Upsample/Encode_feature/conv1d_10/kernel/Initializer/random_uniform"
  op: "Add"
  input: "Upsample/Encode_feature/conv1d_10/kernel/Initializer/random_uniform/mul"
  input: "Upsample/Encode_feature/conv1d_10/kernel/Initializer/random_uniform/min"
  attr {
    key: "T"
    value {
      type: DT_FLOAT
    }
  }
  attr {
    key: "_class"
    value {
      list {
        s: "loc:@Upsample/Encode_feature/conv1d_10/kernel"
      }
    }
  }
}
node {
  name: "Upsample/Encode_feature/conv1d_10/kernel"
  op: "VariableV2"
  attr {
    key: "_class"
    value {
      list {
        s: "loc:@Upsample/Encode_feature/conv1d_10/kernel"
      }
    }
  }
  attr {
    key: "container"
    value {
      s: ""
    }
  }
  attr {
    key: "dtype"
    value {
      type: DT_FLOAT
    }
  }
  attr {
    key: "shape"
    value {
      shape {
        dim {
          size: 1
        }
        dim {
          size: 128
        }
        dim {
          size: 128
        }
      }
    }
  }
  attr {
    key: "shared_name"
    value {
      s: ""
    }
  }
}
node {
  name: "Upsample/Encode_feature/conv1d_10/kernel/Assign"
  op: "Assign"
  input: "Upsample/Encode_feature/conv1d_10/kernel"
  input: "Upsample/Encode_feature/conv1d_10/kernel/Initializer/random_uniform"
  attr {
    key: "T"
    value {
      type: DT_FLOAT
    }
  }
  attr {
    key: "_class"
    value {
      list {
        s: "loc:@Upsample/Encode_feature/conv1d_10/kernel"
      }
    }
  }
  attr {
    key: "use_locking"
    value {
      b: true
    }
  }
  attr {
    key: "validate_shape"
    value {
      b: true
    }
  }
}
node {
  name: "Upsample/Encode_feature/conv1d_10/kernel/read"
  op: "Identity"
  input: "Upsample/Encode_feature/conv1d_10/kernel"
  attr {
    key: "T"
    value {
      type: DT_FLOAT
    }
  }
  attr {
    key: "_class"
    value {
      list {
        s: "loc:@Upsample/Encode_feature/conv1d_10/kernel"
      }
    }
  }
}
node {
  name: "Upsample/Encode_feature/conv1d_10/bias/Initializer/zeros"
  op: "Const"
  attr {
    key: "_class"
    value {
      list {
        s: "loc:@Upsample/Encode_feature/conv1d_10/bias"
      }
    }
  }
  attr {
    key: "dtype"
    value {
      type: DT_FLOAT
    }
  }
  attr {
    key: "value"
    value {
      tensor {
        dtype: DT_FLOAT
        tensor_shape {
          dim {
            size: 128
          }
        }
        float_val: 0.0
      }
    }
  }
}
node {
  name: "Upsample/Encode_feature/conv1d_10/bias"
  op: "VariableV2"
  attr {
    key: "_class"
    value {
      list {
        s: "loc:@Upsample/Encode_feature/conv1d_10/bias"
      }
    }
  }
  attr {
    key: "container"
    value {
      s: ""
    }
  }
  attr {
    key: "dtype"
    value {
      type: DT_FLOAT
    }
  }
  attr {
    key: "shape"
    value {
      shape {
        dim {
          size: 128
        }
      }
    }
  }
  attr {
    key: "shared_name"
    value {
      s: ""
    }
  }
}
node {
  name: "Upsample/Encode_feature/conv1d_10/bias/Assign"
  op: "Assign"
  input: "Upsample/Encode_feature/conv1d_10/bias"
  input: "Upsample/Encode_feature/conv1d_10/bias/Initializer/zeros"
  attr {
    key: "T"
    value {
      type: DT_FLOAT
    }
  }
  attr {
    key: "_class"
    value {
      list {
        s: "loc:@Upsample/Encode_feature/conv1d_10/bias"
      }
    }
  }
  attr {
    key: "use_locking"
    value {
      b: true
    }
  }
  attr {
    key: "validate_shape"
    value {
      b: true
    }
  }
}
node {
  name: "Upsample/Encode_feature/conv1d_10/bias/read"
  op: "Identity"
  input: "Upsample/Encode_feature/conv1d_10/bias"
  attr {
    key: "T"
    value {
      type: DT_FLOAT
    }
  }
  attr {
    key: "_class"
    value {
      list {
        s: "loc:@Upsample/Encode_feature/conv1d_10/bias"
      }
    }
  }
}
node {
  name: "Upsample/Encode_feature/conv1d_10/dilation_rate"
  op: "Const"
  attr {
    key: "dtype"
    value {
      type: DT_INT32
    }
  }
  attr {
    key: "value"
    value {
      tensor {
        dtype: DT_INT32
        tensor_shape {
          dim {
            size: 1
          }
        }
        int_val: 1
      }
    }
  }
}
node {
  name: "Upsample/Encode_feature/conv1d_10/conv1d/ExpandDims/dim"
  op: "Const"
  attr {
    key: "dtype"
    value {
      type: DT_INT32
    }
  }
  attr {
    key: "value"
    value {
      tensor {
        dtype: DT_INT32
        tensor_shape {
        }
        int_val: 1
      }
    }
  }
}
node {
  name: "Upsample/Encode_feature/conv1d_10/conv1d/ExpandDims"
  op: "ExpandDims"
  input: "Upsample/Deconvolution/Squeeze"
  input: "Upsample/Encode_feature/conv1d_10/conv1d/ExpandDims/dim"
  attr {
    key: "T"
    value {
      type: DT_FLOAT
    }
  }
  attr {
    key: "Tdim"
    value {
      type: DT_INT32
    }
  }
}
node {
  name: "Upsample/Encode_feature/conv1d_10/conv1d/ExpandDims_1/dim"
  op: "Const"
  attr {
    key: "dtype"
    value {
      type: DT_INT32
    }
  }
  attr {
    key: "value"
    value {
      tensor {
        dtype: DT_INT32
        tensor_shape {
        }
        int_val: 0
      }
    }
  }
}
node {
  name: "Upsample/Encode_feature/conv1d_10/conv1d/ExpandDims_1"
  op: "ExpandDims"
  input: "Upsample/Encode_feature/conv1d_10/kernel/read"
  input: "Upsample/Encode_feature/conv1d_10/conv1d/ExpandDims_1/dim"
  attr {
    key: "T"
    value {
      type: DT_FLOAT
    }
  }
  attr {
    key: "Tdim"
    value {
      type: DT_INT32
    }
  }
}
node {
  name: "Upsample/Encode_feature/conv1d_10/conv1d/Conv2D"
  op: "Conv2D"
  input: "Upsample/Encode_feature/conv1d_10/conv1d/ExpandDims"
  input: "Upsample/Encode_feature/conv1d_10/conv1d/ExpandDims_1"
  attr {
    key: "T"
    value {
      type: DT_FLOAT
    }
  }
  attr {
    key: "data_format"
    value {
      s: "NHWC"
    }
  }
  attr {
    key: "dilations"
    value {
      list {
        i: 1
        i: 1
        i: 1
        i: 1
      }
    }
  }
  attr {
    key: "padding"
    value {
      s: "VALID"
    }
  }
  attr {
    key: "strides"
    value {
      list {
        i: 1
        i: 1
        i: 1
        i: 1
      }
    }
  }
  attr {
    key: "use_cudnn_on_gpu"
    value {
      b: true
    }
  }
}
node {
  name: "Upsample/Encode_feature/conv1d_10/conv1d/Squeeze"
  op: "Squeeze"
  input: "Upsample/Encode_feature/conv1d_10/conv1d/Conv2D"
  attr {
    key: "T"
    value {
      type: DT_FLOAT
    }
  }
  attr {
    key: "squeeze_dims"
    value {
      list {
        i: 1
      }
    }
  }
}
node {
  name: "Upsample/Encode_feature/conv1d_10/BiasAdd"
  op: "BiasAdd"
  input: "Upsample/Encode_feature/conv1d_10/conv1d/Squeeze"
  input: "Upsample/Encode_feature/conv1d_10/bias/read"
  attr {
    key: "T"
    value {
      type: DT_FLOAT
    }
  }
  attr {
    key: "data_format"
    value {
      s: "NHWC"
    }
  }
}
node {
  name: "Upsample/Encode_feature/conv1d_11/kernel/Initializer/random_uniform/shape"
  op: "Const"
  attr {
    key: "_class"
    value {
      list {
        s: "loc:@Upsample/Encode_feature/conv1d_11/kernel"
      }
    }
  }
  attr {
    key: "dtype"
    value {
      type: DT_INT32
    }
  }
  attr {
    key: "value"
    value {
      tensor {
        dtype: DT_INT32
        tensor_shape {
          dim {
            size: 3
          }
        }
        tensor_content: "\001\000\000\000\200\000\000\000\200\000\000\000"
      }
    }
  }
}
node {
  name: "Upsample/Encode_feature/conv1d_11/kernel/Initializer/random_uniform/min"
  op: "Const"
  attr {
    key: "_class"
    value {
      list {
        s: "loc:@Upsample/Encode_feature/conv1d_11/kernel"
      }
    }
  }
  attr {
    key: "dtype"
    value {
      type: DT_FLOAT
    }
  }
  attr {
    key: "value"
    value {
      tensor {
        dtype: DT_FLOAT
        tensor_shape {
        }
        float_val: -0.1530931144952774
      }
    }
  }
}
node {
  name: "Upsample/Encode_feature/conv1d_11/kernel/Initializer/random_uniform/max"
  op: "Const"
  attr {
    key: "_class"
    value {
      list {
        s: "loc:@Upsample/Encode_feature/conv1d_11/kernel"
      }
    }
  }
  attr {
    key: "dtype"
    value {
      type: DT_FLOAT
    }
  }
  attr {
    key: "value"
    value {
      tensor {
        dtype: DT_FLOAT
        tensor_shape {
        }
        float_val: 0.1530931144952774
      }
    }
  }
}
node {
  name: "Upsample/Encode_feature/conv1d_11/kernel/Initializer/random_uniform/RandomUniform"
  op: "RandomUniform"
  input: "Upsample/Encode_feature/conv1d_11/kernel/Initializer/random_uniform/shape"
  attr {
    key: "T"
    value {
      type: DT_INT32
    }
  }
  attr {
    key: "_class"
    value {
      list {
        s: "loc:@Upsample/Encode_feature/conv1d_11/kernel"
      }
    }
  }
  attr {
    key: "dtype"
    value {
      type: DT_FLOAT
    }
  }
  attr {
    key: "seed"
    value {
      i: 0
    }
  }
  attr {
    key: "seed2"
    value {
      i: 0
    }
  }
}
node {
  name: "Upsample/Encode_feature/conv1d_11/kernel/Initializer/random_uniform/sub"
  op: "Sub"
  input: "Upsample/Encode_feature/conv1d_11/kernel/Initializer/random_uniform/max"
  input: "Upsample/Encode_feature/conv1d_11/kernel/Initializer/random_uniform/min"
  attr {
    key: "T"
    value {
      type: DT_FLOAT
    }
  }
  attr {
    key: "_class"
    value {
      list {
        s: "loc:@Upsample/Encode_feature/conv1d_11/kernel"
      }
    }
  }
}
node {
  name: "Upsample/Encode_feature/conv1d_11/kernel/Initializer/random_uniform/mul"
  op: "Mul"
  input: "Upsample/Encode_feature/conv1d_11/kernel/Initializer/random_uniform/RandomUniform"
  input: "Upsample/Encode_feature/conv1d_11/kernel/Initializer/random_uniform/sub"
  attr {
    key: "T"
    value {
      type: DT_FLOAT
    }
  }
  attr {
    key: "_class"
    value {
      list {
…
      name: "make_mel_spectorogram/linear_to_mel_weight_matrix/frame/Size_1"
      op: "Const"
      attr {
        key: "dtype"
        value {
          type: DT_INT32
        }
      }
      attr {
        key: "value"
        value {
          tensor {
            dtype: DT_INT32
            tensor_shape {
            }
            int_val: 0
          }
        }
      }
    }
    node_def {
      name: "make_mel_spectorogram/linear_to_mel_weight_matrix/frame/sub_2"
      op: "Sub"
      input: "make_mel_spectorogram/linear_to_mel_weight_matrix/frame/Reshape:output:0"
      input: "make_mel_spectorogram/linear_to_mel_weight_matrix/frame/frame_length:output:0"
      attr {
        key: "T"
        value {
          type: DT_INT32
        }
      }
    }
    node_def {
      name: "make_mel_spectorogram/linear_to_mel_weight_matrix/frame/floordiv"
      op: "FloorDiv"
      input: "make_mel_spectorogram/linear_to_mel_weight_matrix/frame/sub_2:z:0"
      input: "make_mel_spectorogram/linear_to_mel_weight_matrix/frame/frame_step:output:0"
      attr {
        key: "T"
        value {
          type: DT_INT32
        }
      }
    }
    node_def {
      name: "make_mel_spectorogram/linear_to_mel_weight_matrix/frame/add_1/x"
      op: "Const"
      attr {
        key: "dtype"
        value {
          type: DT_INT32
        }
      }
      attr {
        key: "value"
        value {
          tensor {
            dtype: DT_INT32
            tensor_shape {
            }
            int_val: 1
          }
        }
      }
    }
    node_def {
      name: "make_mel_spectorogram/linear_to_mel_weight_matrix/frame/add_1"
      op: "Add"
      input: "make_mel_spectorogram/linear_to_mel_weight_matrix/frame/add_1/x:output:0"
      input: "make_mel_spectorogram/linear_to_mel_weight_matrix/frame/floordiv:z:0"
      attr {
        key: "T"
        value {
          type: DT_INT32
        }
      }
    }
    node_def {
      name: "make_mel_spectorogram/linear_to_mel_weight_matrix/frame/Maximum/x"
      op: "Const"
      attr {
        key: "dtype"
        value {
          type: DT_INT32
        }
      }
      attr {
        key: "value"
        value {
          tensor {
            dtype: DT_INT32
            tensor_shape {
            }
            int_val: 0
          }
        }
      }
    }
    node_def {
      name: "make_mel_spectorogram/linear_to_mel_weight_matrix/frame/Maximum"
      op: "Maximum"
      input: "make_mel_spectorogram/linear_to_mel_weight_matrix/frame/Maximum/x:output:0"
      input: "make_mel_spectorogram/linear_to_mel_weight_matrix/frame/add_1:z:0"
      attr {
        key: "T"
        value {
          type: DT_INT32
        }
      }
    }
    node_def {
      name: "make_mel_spectorogram/linear_to_mel_weight_matrix/frame/gcd/Const"
      op: "Const"
      attr {
        key: "dtype"
        value {
          type: DT_INT32
        }
      }
      attr {
        key: "value"
        value {
          tensor {
            dtype: DT_INT32
            tensor_shape {
            }
            int_val: 1
          }
        }
      }
    }
    node_def {
      name: "make_mel_spectorogram/linear_to_mel_weight_matrix/frame/floordiv_1"
      op: "FloorDiv"
      input: "make_mel_spectorogram/linear_to_mel_weight_matrix/frame/frame_length:output:0"
      input: "make_mel_spectorogram/linear_to_mel_weight_matrix/frame/gcd/Const:output:0"
      attr {
        key: "T"
        value {
          type: DT_INT32
        }
      }
    }
    node_def {
      name: "make_mel_spectorogram/linear_to_mel_weight_matrix/frame/floordiv_2"
      op: "FloorDiv"
      input: "make_mel_spectorogram/linear_to_mel_weight_matrix/frame/frame_step:output:0"
      input: "make_mel_spectorogram/linear_to_mel_weight_matrix/frame/gcd/Const:output:0"
      attr {
        key: "T"
        value {
          type: DT_INT32
        }
      }
    }
    node_def {
      name: "make_mel_spectorogram/linear_to_mel_weight_matrix/frame/floordiv_3"
      op: "FloorDiv"
      input: "make_mel_spectorogram/linear_to_mel_weight_matrix/frame/Reshape:output:0"
      input: "make_mel_spectorogram/linear_to_mel_weight_matrix/frame/gcd/Const:output:0"
      attr {
        key: "T"
        value {
          type: DT_INT32
        }
      }
    }
    node_def {
      name: "make_mel_spectorogram/linear_to_mel_weight_matrix/frame/mul"
      op: "Mul"
      input: "make_mel_spectorogram/linear_to_mel_weight_matrix/frame/floordiv_3:z:0"
      input: "make_mel_spectorogram/linear_to_mel_weight_matrix/frame/gcd/Const:output:0"
      attr {
        key: "T"
        value {
          type: DT_INT32
        }
      }
    }
    node_def {
      name: "make_mel_spectorogram/linear_to_mel_weight_matrix/frame/concat/values_1"
      op: "Pack"
      input: "make_mel_spectorogram/linear_to_mel_weight_matrix/frame/mul:z:0"
      attr {
        key: "N"
        value {
          i: 1
        }
      }
      attr {
        key: "T"
        value {
          type: DT_INT32
        }
      }
      attr {
        key: "axis"
        value {
          i: 0
        }
      }
    }
    node_def {
      name: "make_mel_spectorogram/linear_to_mel_weight_matrix/frame/concat/axis"
      op: "Const"
      attr {
        key: "dtype"
        value {
          type: DT_INT32
        }
      }
      attr {
        key: "value"
        value {
          tensor {
            dtype: DT_INT32
            tensor_shape {
            }
            int_val: 0
          }
        }
      }
    }
    node_def {
      name: "make_mel_spectorogram/linear_to_mel_weight_matrix/frame/concat"
      op: "ConcatV2"
      input: "make_mel_spectorogram/linear_to_mel_weight_matrix/frame/split:output:0"
      input: "make_mel_spectorogram/linear_to_mel_weight_matrix/frame/concat/values_1:output:0"
      input: "make_mel_spectorogram/linear_to_mel_weight_matrix/frame/split:output:2"
      input: "make_mel_spectorogram/linear_to_mel_weight_matrix/frame/concat/axis:output:0"
      attr {
        key: "N"
        value {
          i: 3
        }
      }
      attr {
        key: "T"
        value {
          type: DT_INT32
        }
      }
      attr {
        key: "Tidx"
        value {
          type: DT_INT32
        }
      }
    }
    node_def {
      name: "make_mel_spectorogram/linear_to_mel_weight_matrix/frame/concat_1/values_1"
      op: "Pack"
      input: "make_mel_spectorogram/linear_to_mel_weight_matrix/frame/floordiv_3:z:0"
      input: "make_mel_spectorogram/linear_to_mel_weight_matrix/frame/gcd/Const:output:0"
      attr {
        key: "N"
        value {
          i: 2
        }
      }
      attr {
        key: "T"
        value {
          type: DT_INT32
        }
      }
      attr {
        key: "axis"
        value {
          i: 0
        }
      }
    }
    node_def {
      name: "make_mel_spectorogram/linear_to_mel_weight_matrix/frame/concat_1/axis"
      op: "Const"
      attr {
        key: "dtype"
        value {
          type: DT_INT32
        }
      }
      attr {
        key: "value"
        value {
          tensor {
            dtype: DT_INT32
            tensor_shape {
            }
            int_val: 0
          }
        }
      }
    }
    node_def {
      name: "make_mel_spectorogram/linear_to_mel_weight_matrix/frame/concat_1"
      op: "ConcatV2"
      input: "make_mel_spectorogram/linear_to_mel_weight_matrix/frame/split:output:0"
      input: "make_mel_spectorogram/linear_to_mel_weight_matrix/frame/concat_1/values_1:output:0"
      input: "make_mel_spectorogram/linear_to_mel_weight_matrix/frame/split:output:2"
      input: "make_mel_spectorogram/linear_to_mel_weight_matrix/frame/concat_1/axis:output:0"
      attr {
        key: "N"
        value {
          i: 3
        }
      }
      attr {
        key: "T"
        value {
          type: DT_INT32
        }
      }
      attr {
        key: "Tidx"
        value {
          type: DT_INT32
        }
      }
    }
    node_def {
      name: "make_mel_spectorogram/linear_to_mel_weight_matrix/frame/zeros_like"
      op: "Const"
      attr {
        key: "dtype"
        value {
          type: DT_INT32
        }
      }
      attr {
        key: "value"
        value {
          tensor {
            dtype: DT_INT32
            tensor_shape {
              dim {
                size: 1
              }
            }
            int_val: 0
          }
        }
      }
    }
    node_def {
      name: "make_mel_spectorogram/linear_to_mel_weight_matrix/frame/ones_like/Shape"
      op: "Const"
      attr {
        key: "dtype"
        value {
          type: DT_INT32
        }
      }
      attr {
        key: "value"
        value {
          tensor {
            dtype: DT_INT32
            tensor_shape {
              dim {
                size: 1
              }
            }
            int_val: 1
          }
        }
      }
    }
    node_def {
      name: "make_mel_spectorogram/linear_to_mel_weight_matrix/frame/ones_like/Const"
      op: "Const"
      attr {
        key: "dtype"
        value {
          type: DT_INT32
        }
      }
      attr {
        key: "value"
        value {
          tensor {
            dtype: DT_INT32
            tensor_shape {
            }
            int_val: 1
          }
        }
      }
    }
    node_def {
      name: "make_mel_spectorogram/linear_to_mel_weight_matrix/frame/ones_like"
      op: "Fill"
      input: "make_mel_spectorogram/linear_to_mel_weight_matrix/frame/ones_like/Shape:output:0"
      input: "make_mel_spectorogram/linear_to_mel_weight_matrix/frame/ones_like/Const:output:0"
      attr {
        key: "T"
        value {
          type: DT_INT32
        }
      }
      attr {
        key: "index_type"
        value {
          type: DT_INT32
        }
      }
    }
    node_def {
      name: "make_mel_spectorogram/linear_to_mel_weight_matrix/frame/StridedSlice"
      op: "StridedSlice"
      input: "make_mel_spectorogram/linear_to_mel_weight_matrix/LinSpace_1:output:0"
      input: "make_mel_spectorogram/linear_to_mel_weight_matrix/frame/zeros_like:output:0"
      input: "make_mel_spectorogram/linear_to_mel_weight_matrix/frame/concat:output:0"
      input: "make_mel_spectorogram/linear_to_mel_weight_matrix/frame/ones_like:output:0"
      attr {
        key: "Index"
        value {
          type: DT_INT32
        }
      }
      attr {
        key: "T"
        value {
          type: DT_FLOAT
        }
      }
      attr {
        key: "begin_mask"
        value {
          i: 0
        }
      }
      attr {
        key: "ellipsis_mask"
        value {
          i: 0
        }
      }
      attr {
        key: "end_mask"
        value {
          i: 0
        }
      }
      attr {
        key: "new_axis_mask"
        value {
          i: 0
        }
      }
      attr {
        key: "shrink_axis_mask"
        value {
          i: 0
        }
      }
    }
    node_def {
      name: "make_mel_spectorogram/linear_to_mel_weight_matrix/frame/Reshape_1"
      op: "Reshape"
      input: "make_mel_spectorogram/linear_to_mel_weight_matrix/frame/StridedSlice:output:0"
      input: "make_mel_spectorogram/linear_to_mel_weight_matrix/frame/concat_1:output:0"
      attr {
        key: "T"
        value {
          type: DT_FLOAT
        }
      }
      attr {
        key: "Tshape"
        value {
          type: DT_INT32
        }
      }
    }
    node_def {
      name: "make_mel_spectorogram/linear_to_mel_weight_matrix/frame/range_1/start"
      op: "Const"
      attr {
        key: "dtype"
        value {
          type: DT_INT32
        }
      }
      attr {
        key: "value"
        value {
          tensor {
            dtype: DT_INT32
            tensor_shape {
            }
            int_val: 0
          }
        }
      }
    }
    node_def {
      name: "make_mel_spectorogram/linear_to_mel_weight_matrix/frame/range_1/delta"
      op: "Const"
      attr {
        key: "dtype"
        value {
          type: DT_INT32
        }
      }
      attr {
        key: "value"
        value {
          tensor {
            dtype: DT_INT32
            tensor_shape {
            }
            int_val: 1
          }
        }
      }
    }
    node_def {
      name: "make_mel_spectorogram/linear_to_mel_weight_matrix/frame/range_1"
      op: "Range"
      input: "make_mel_spectorogram/linear_to_mel_weight_matrix/frame/range_1/start:output:0"
      input: "make_mel_spectorogram/linear_to_mel_weight_matrix/frame/Maximum:z:0"
      input: "make_mel_spectorogram/linear_to_mel_weight_matrix/frame/range_1/delta:output:0"
      attr {
        key: "Tidx"
        value {
          type: DT_INT32
        }
      }
    }
    node_def {
      name: "make_mel_spectorogram/linear_to_mel_weight_matrix/frame/mul_1"
      op: "Mul"
      input: "make_mel_spectorogram/linear_to_mel_weight_matrix/frame/range_1:output:0"
      input: "make_mel_spectorogram/linear_to_mel_weight_matrix/frame/floordiv_2:z:0"
      attr {
        key: "T"
        value {
          type: DT_INT32
        }
      }
    }
    node_def {
      name: "make_mel_spectorogram/linear_to_mel_weight_matrix/frame/Reshape_2/shape/1"
      op: "Const"
      attr {
        key: "dtype"
        value {
          type: DT_INT32
        }
      }
      attr {
        key: "value"
        value {
          tensor {
            dtype: DT_INT32
            tensor_shape {
            }
            int_val: 1
          }
        }
      }
    }
    node_def {
      name: "make_mel_spectorogram/linear_to_mel_weight_matrix/frame/Reshape_2/shape"
      op: "Pack"
      input: "make_mel_spectorogram/linear_to_mel_weight_matrix/frame/Maximum:z:0"
      input: "make_mel_spectorogram/linear_to_mel_weight_matrix/frame/Reshape_2/shape/1:output:0"
      attr {
        key: "N"
        value {
          i: 2
        }
      }
      attr {
        key: "T"
        value {
          type: DT_INT32
        }
      }
      attr {
        key: "axis"
        value {
          i: 0
        }
      }
    }
    node_def {
      name: "make_mel_spectorogram/linear_to_mel_weight_matrix/frame/Reshape_2"
      op: "Reshape"
      input: "make_mel_spectorogram/linear_to_mel_weight_matrix/frame/mul_1:z:0"
      input: "make_mel_spectorogram/linear_to_mel_weight_matrix/frame/Reshape_2/shape:output:0"
      attr {
        key: "T"
        value {
          type: DT_INT32
        }
      }
      attr {
        key: "Tshape"
        value {
          type: DT_INT32
        }
      }
    }
    node_def {
      name: "make_mel_spectorogram/linear_to_mel_weight_matrix/frame/range_2/start"
      op: "Const"
      attr {
        key: "dtype"
        value {
          type: DT_INT32
        }
      }
      attr {
        key: "value"
        value {
          tensor {
            dtype: DT_INT32
            tensor_shape {
            }
            int_val: 0
          }
        }
      }
    }
    node_def {
      name: "make_mel_spectorogram/linear_to_mel_weight_matrix/frame/range_2/delta"
      op: "Const"
      attr {
        key: "dtype"
        value {
          type: DT_INT32
        }
      }
      attr {
        key: "value"
        value {
          tensor {
            dtype: DT_INT32
            tensor_shape {
            }
            int_val: 1
          }
        }
      }
    }
    node_def {
      name: "make_mel_spectorogram/linear_to_mel_weight_matrix/frame/range_2"
      op: "Range"
      input: "make_mel_spectorogram/linear_to_mel_weight_matrix/frame/range_2/start:output:0"
      input: "make_mel_spectorogram/linear_to_mel_weight_matrix/frame/floordiv_1:z:0"
      input: "make_mel_spectorogram/linear_to_mel_weight_matrix/frame/range_2/delta:output:0"
      attr {
        key: "Tidx"
        value {
          type: DT_INT32
        }
      }
    }
    node_def {
      name: "make_mel_spectorogram/linear_to_mel_weight_matrix/frame/Reshape_3/shape/0"
      op: "Const"
      attr {
        key: "dtype"
        value {
          type: DT_INT32
        }
      }
      attr {
        key: "value"
        value {
          tensor {
            dtype: DT_INT32
            tensor_shape {
            }
            int_val: 1
          }
        }
      }
    }
    node_def {
      name: "make_mel_spectorogram/linear_to_mel_weight_matrix/frame/Reshape_3/shape"
      op: "Pack"
      input: "make_mel_spectorogram/linear_to_mel_weight_matrix/frame/Reshape_3/shape/0:output:0"
      input: "make_mel_spectorogram/linear_to_mel_weight_matrix/frame/floordiv_1:z:0"
      attr {
        key: "N"
        value {
          i: 2
        }
      }
      attr {
        key: "T"
        value {
          type: DT_INT32
        }
      }
      attr {
        key: "axis"
        value {
          i: 0
        }
      }
    }
    node_def {
      name: "make_mel_spectorogram/linear_to_mel_weight_matrix/frame/Reshape_3"
      op: "Reshape"
      input: "make_mel_spectorogram/linear_to_mel_weight_matrix/frame/range_2:output:0"
      input: "make_mel_spectorogram/linear_to_mel_weight_matrix/frame/Reshape_3/shape:output:0"
      attr {
        key: "T"
        value {
          type: DT_INT32
        }
      }
      attr {
        key: "Tshape"
        value {
          type: DT_INT32
        }
      }
    }
    node_def {
      name: "make_mel_spectorogram/linear_to_mel_weight_matrix/frame/add_2"
      op: "Add"
      input: "make_mel_spectorogram/linear_to_mel_weight_matrix/frame/Reshape_2:output:0"
      input: "make_mel_spectorogram/linear_to_mel_weight_matrix/frame/Reshape_3:output:0"
      attr {
        key: "T"
        value {
          type: DT_INT32
        }
      }
    }
    node_def {
      name: "make_mel_spectorogram/linear_to_mel_weight_matrix/frame/GatherV2"
      op: "GatherV2"
      input: "make_mel_spectorogram/linear_to_mel_weight_matrix/frame/Reshape_1:output:0"
      input: "make_mel_spectorogram/linear_to_mel_weight_matrix/frame/add_2:z:0"
      input: "make_mel_spectorogram/linear_to_mel_weight_matrix/frame/strided_slice:output:0"
      attr {
        key: "Taxis"
        value {
          type: DT_INT32
        }
      }
      attr {
        key: "Tindices"
        value {
          type: DT_INT32
        }
      }
      attr {
        key: "Tparams"
        value {
          type: DT_FLOAT
        }
      }
    }
    node_def {
      name: "make_mel_spectorogram/linear_to_mel_weight_matrix/frame/concat_2/values_1"
      op: "Pack"
      input: "make_mel_spectorogram/linear_to_mel_weight_matrix/frame/Maximum:z:0"
      input: "make_mel_spectorogram/linear_to_mel_weight_matrix/frame/frame_length:output:0"
      attr {
        key: "N"
        value {
          i: 2
        }
      }
      attr {
        key: "T"
        value {
          type: DT_INT32
        }
      }
      attr {
        key: "axis"
        value {
          i: 0
        }
      }
    }
    node_def {
      name: "make_mel_spectorogram/linear_to_mel_weight_matrix/frame/concat_2/axis"
      op: "Const"
      attr {
        key: "dtype"
        value {
          type: DT_INT32
        }
      }
      attr {
        key: "value"
        value {
          tensor {
            dtype: DT_INT32
            tensor_shape {
            }
            int_val: 0
          }
        }
      }
    }
    node_def {
      name: "make_mel_spectorogram/linear_to_mel_weight_matrix/frame/concat_2"
      op: "ConcatV2"
      input: "make_mel_spectorogram/linear_to_mel_weight_matrix/frame/split:output:0"
      input: "make_mel_spectorogram/linear_to_mel_weight_matrix/frame/concat_2/values_1:output:0"
      input: "make_mel_spectorogram/linear_to_mel_weight_matrix/frame/split:output:2"
      input: "make_mel_spectorogram/linear_to_mel_weight_matrix/frame/concat_2/axis:output:0"
      attr {
        key: "N"
        value {
          i: 3
        }
      }
      attr {
        key: "T"
        value {
          type: DT_INT32
        }
      }
      attr {
        key: "Tidx"
        value {
          type: DT_INT32
        }
      }
    }
    node_def {
      name: "make_mel_spectorogram/linear_to_mel_weight_matrix/frame/Reshape_4"
      op: "Reshape"
      input: "make_mel_spectorogram/linear_to_mel_weight_matrix/frame/GatherV2:output:0"
      input: "make_mel_spectorogram/linear_to_mel_weight_matrix/frame/concat_2:output:0"
      attr {
        key: "T"
        value {
          type: DT_FLOAT
        }
      }
      attr {
        key: "Tshape"
        value {
          type: DT_INT32
        }
      }
    }
    node_def {
      name: "make_mel_spectorogram/linear_to_mel_weight_matrix/Const_1"
      op: "Const"
      attr {
        key: "dtype"
        value {
          type: DT_INT32
        }
      }
      attr {
        key: "value"
        value {
          tensor {
            dtype: DT_INT32
            tensor_shape {
            }
            int_val: 3
          }
        }
      }
    }
    node_def {
      name: "make_mel_spectorogram/linear_to_mel_weight_matrix/split/split_dim"
      op: "Const"
      attr {
        key: "dtype"
        value {
          type: DT_INT32
        }
      }
      attr {
        key: "value"
        value {
          tensor {
            dtype: DT_INT32
            tensor_shape {
            }
            int_val: 1
          }
        }
      }
    }
    node_def {
      name: "make_mel_spectorogram/linear_to_mel_weight_matrix/split"
      op: "Split"
      input: "make_mel_spectorogram/linear_to_mel_weight_matrix/split/split_dim:output:0"
      input: "make_mel_spectorogram/linear_to_mel_weight_matrix/frame/Reshape_4:output:0"
      attr {
        key: "T"
        value {
          type: DT_FLOAT
        }
      }
      attr {
        key: "num_split"
        value {
          i: 3
        }
      }
    }
    node_def {
      name: "make_mel_spectorogram/linear_to_mel_weight_matrix/Reshape/shape"
      op: "Const"
      attr {
        key: "dtype"
        value {
          type: DT_INT32
        }
      }
      attr {
        key: "value"
        value {
          tensor {
            dtype: DT_INT32
            tensor_shape {
              dim {
                size: 2
              }
            }
            tensor_content: "\001\000\000\000\200\000\000\000"
          }
        }
      }
    }
    node_def {
      name: "make_mel_spectorogram/linear_to_mel_weight_matrix/Reshape"
      op: "Reshape"
      input: "make_mel_spectorogram/linear_to_mel_weight_matrix/split:output:0"
      input: "make_mel_spectorogram/linear_to_mel_weight_matrix/Reshape/shape:output:0"
      attr {
        key: "T"
        value {
          type: DT_FLOAT
        }
      }
      attr {
        key: "Tshape"
        value {
          type: DT_INT32
        }
      }
    }
    node_def {
      name: "make_mel_spectorogram/linear_to_mel_weight_matrix/Reshape_1/shape"
      op: "Const"
      attr {
        key: "dtype"
        value {
          type: DT_INT32
        }
      }
      attr {
        key: "value"
        value {
          tensor {
            dtype: DT_INT32
            tensor_shape {
              dim {
                size: 2
              }
            }
            tensor_content: "\001\000\000\000\200\000\000\000"
          }
        }
      }
    }
    node_def {
      name: "make_mel_spectorogram/linear_to_mel_weight_matrix/Reshape_1"
      op: "Reshape"
      input: "make_mel_spectorogram/linear_to_mel_weight_matrix/split:output:1"
      input: "make_mel_spectorogram/linear_to_mel_weight_matrix/Reshape_1/shape:output:0"
      attr {
        key: "T"
        value {
          type: DT_FLOAT
        }
      }
      attr {
        key: "Tshape"
        value {
          type: DT_INT32
        }
      }
    }
    node_def {
      name: "make_mel_spectorogram/linear_to_mel_weight_matrix/Reshape_2/shape"
      op: "Const"
      attr {
        key: "dtype"
        value {
          type: DT_INT32
        }
      }
      attr {
        key: "value"
        value {
          tensor {
            dtype: DT_INT32
            tensor_shape {
              dim {
                size: 2
              }
            }
            tensor_content: "\001\000\000\000\200\000\000\000"
          }
        }
      }
    }
    node_def {
      name: "make_mel_spectorogram/linear_to_mel_weight_matrix/Reshape_2"
      op: "Reshape"
      input: "make_mel_spectorogram/linear_to_mel_weight_matrix/split:output:2"
      input: "make_mel_spectorogram/linear_to_mel_weight_matrix/Reshape_2/shape:output:0"
      attr {
        key: "T"
        value {
          type: DT_FLOAT
        }
      }
      attr {
        key: "Tshape"
        value {
          type: DT_INT32
        }
      }
    }
    node_def {
      name: "make_mel_spectorogram/linear_to_mel_weight_matrix/sub"
      op: "Sub"
      input: "make_mel_spectorogram/linear_to_mel_weight_matrix/ExpandDims:output:0"
      input: "make_mel_spectorogram/linear_to_mel_weight_matrix/Reshape:output:0"
      attr {
        key: "T"
        value {
          type: DT_FLOAT
        }
      }
    }
    node_def {
      name: "make_mel_spectorogram/linear_to_mel_weight_matrix/sub_1"
      op: "Sub"
      input: "make_mel_spectorogram/linear_to_mel_weight_matrix/Reshape_1:output:0"
      input: "make_mel_spectorogram/linear_to_mel_weight_matrix/Reshape:output:0"
      attr {
        key: "T"
        value {
          type: DT_FLOAT
        }
      }
    }
    node_def {
      name: "make_mel_spectorogram/linear_to_mel_weight_matrix/truediv_1"
      op: "RealDiv"
      input: "make_mel_spectorogram/linear_to_mel_weight_matrix/sub:z:0"
      input: "make_mel_spectorogram/linear_to_mel_weight_matrix/sub_1:z:0"
      attr {
        key: "T"
        value {
          type: DT_FLOAT
        }
      }
    }
    node_def {
      name: "make_mel_spectorogram/linear_to_mel_weight_matrix/sub_2"
      op: "Sub"
      input: "make_mel_spectorogram/linear_to_mel_weight_matrix/Reshape_2:output:0"
      input: "make_mel_spectorogram/linear_to_mel_weight_matrix/ExpandDims:output:0"
      attr {
        key: "T"
        value {
          type: DT_FLOAT
        }
      }
    }
    node_def {
      name: "make_mel_spectorogram/linear_to_mel_weight_matrix/sub_3"
      op: "Sub"
      input: "make_mel_spectorogram/linear_to_mel_weight_matrix/Reshape_2:output:0"
      input: "make_mel_spectorogram/linear_to_mel_weight_matrix/Reshape_1:output:0"
      attr {
        key: "T"
        value {
          type: DT_FLOAT
        }
      }
    }
    node_def {
      name: "make_mel_spectorogram/linear_to_mel_weight_matrix/truediv_2"
      op: "RealDiv"
      input: "make_mel_spectorogram/linear_to_mel_weight_matrix/sub_2:z:0"
      input: "make_mel_spectorogram/linear_to_mel_weight_matrix/sub_3:z:0"
      attr {
        key: "T"
        value {
          type: DT_FLOAT
        }
      }
    }
    node_def {
      name: "make_mel_spectorogram/linear_to_mel_weight_matrix/Minimum"
      op: "Minimum"
      input: "make_mel_spectorogram/linear_to_mel_weight_matrix/truediv_1:z:0"
      input: "make_mel_spectorogram/linear_to_mel_weight_matrix/truediv_2:z:0"
      attr {
        key: "T"
        value {
          type: DT_FLOAT
        }
      }
    }
    node_def {
      name: "make_mel_spectorogram/linear_to_mel_weight_matrix/Maximum"
      op: "Maximum"
      input: "make_mel_spectorogram/linear_to_mel_weight_matrix/Const:output:0"
      input: "make_mel_spectorogram/linear_to_mel_weight_matrix/Minimum:z:0"
      attr {
        key: "T"
        value {
          type: DT_FLOAT
        }
      }
    }
    node_def {
      name: "make_mel_spectorogram/linear_to_mel_weight_matrix/paddings"
      op: "Const"
      attr {
        key: "dtype"
        value {
          type: DT_INT32
        }
      }
      attr {
        key: "value"
        value {
          tensor {
            dtype: DT_INT32
            tensor_shape {
              dim {
                size: 2
              }
              dim {
                size: 2
              }
            }
            tensor_content: "\001\000\000\000\000\000\000\000\000\000\000\000\000\000\000\000"
          }
        }
      }
    }
    node_def {
      name: "make_mel_spectorogram/linear_to_mel_weight_matrix"
      op: "Pad"
      input: "make_mel_spectorogram/linear_to_mel_weight_matrix/Maximum:z:0"
      input: "make_mel_spectorogram/linear_to_mel_weight_matrix/paddings:output:0"
      attr {
        key: "T"
        value {
          type: DT_FLOAT
        }
      }
      attr {
        key: "Tpaddings"
        value {
          type: DT_INT32
        }
      }
    }
    node_def {
      name: "make_mel_spectorogram/einsum/transpose/perm"
      op: "Const"
      attr {
        key: "dtype"
        value {
          type: DT_INT32
        }
      }
      attr {
        key: "value"
        value {
          tensor {
            dtype: DT_INT32
            tensor_shape {
              dim {
                size: 3
              }
            }
            tensor_content: "\000\000\000\000\001\000\000\000\002\000\000\000"
          }
        }
      }
    }
    node_def {
      name: "make_mel_spectorogram/einsum/transpose"
      op: "Transpose"
      input: "make_mel_spectorogram/make_spectorogram/Pow:z:0"
      input: "make_mel_spectorogram/einsum/transpose/perm:output:0"
      attr {
        key: "T"
        value {
          type: DT_FLOAT
        }
      }
      attr {
        key: "Tperm"
        value {
          type: DT_INT32
        }
      }
    }
    node_def {
      name: "make_mel_spectorogram/einsum/transpose_1/perm"
      op: "Const"
      attr {
        key: "dtype"
        value {
          type: DT_INT32
        }
      }
      attr {
        key: "value"
        value {
          tensor {
            dtype: DT_INT32
            tensor_shape {
              dim {
                size: 2
              }
            }
            tensor_content: "\000\000\000\000\001\000\000\000"
          }
        }
      }
    }
    node_def {
      name: "make_mel_spectorogram/einsum/transpose_1"
      op: "Transpose"
      input: "make_mel_spectorogram/linear_to_mel_weight_matrix:output:0"
      input: "make_mel_spectorogram/einsum/transpose_1/perm:output:0"
      attr {
        key: "T"
        value {
          type: DT_FLOAT
        }
      }
      attr {
        key: "Tperm"
        value {
          type: DT_INT32
        }
      }
    }
    node_def {
      name: "make_mel_spectorogram/einsum/Shape"
      op: "Shape"
      input: "make_mel_spectorogram/einsum/transpose:y:0"
      attr {
        key: "T"
        value {
          type: DT_FLOAT
        }
      }
      attr {
        key: "out_type"
        value {
          type: DT_INT32
        }
      }
    }
    node_def {
      name: "make_mel_spectorogram/einsum/strided_slice/stack"
      op: "Const"
      attr {
        key: "dtype"
        value {
          type: DT_INT32
        }
      }
      attr {
        key: "value"
        value {
          tensor {
            dtype: DT_INT32
            tensor_shape {
              dim {
                size: 1
              }
            }
            int_val: 0
          }
        }
      }
    }
    node_def {
      name: "make_mel_spectorogram/einsum/strided_slice/stack_1"
      op: "Const"
      attr {
        key: "dtype"
        value {
          type: DT_INT32
        }
      }
      attr {
        key: "value"
        value {
          tensor {
            dtype: DT_INT32
            tensor_shape {
              dim {
                size: 1
              }
            }
            int_val: 1
          }
        }
      }
    }
    node_def {
      name: "make_mel_spectorogram/einsum/strided_slice/stack_2"
      op: "Const"
      attr {
        key: "dtype"
        value {
          type: DT_INT32
        }
      }
      attr {
        key: "value"
        value {
          tensor {
            dtype: DT_INT32
            tensor_shape {
              dim {
                size: 1
              }
            }
            int_val: 1
          }
        }
      }
    }
    node_def {
      name: "make_mel_spectorogram/einsum/strided_slice"
      op: "StridedSlice"
      input: "make_mel_spectorogram/einsum/Shape:output:0"
      input: "make_mel_spectorogram/einsum/strided_slice/stack:output:0"
      input: "make_mel_spectorogram/einsum/strided_slice/stack_1:output:0"
      input: "make_mel_spectorogram/einsum/strided_slice/stack_2:output:0"
      attr {
        key: "Index"
        value {
          type: DT_INT32
        }
      }
      attr {
        key: "T"
        value {
          type: DT_INT32
        }
      }
      attr {
        key: "begin_mask"
        value {
          i: 0
        }
      }
      attr {
        key: "ellipsis_mask"
        value {
          i: 0
        }
      }
      attr {
        key: "end_mask"
        value {
          i: 0
        }
      }
      attr {
        key: "new_axis_mask"
        value {
          i: 0
        }
      }
      attr {
        key: "shrink_axis_mask"
        value {
          i: 1
        }
      }
    }
    node_def {
      name: "make_mel_spectorogram/einsum/mul/x"
      op: "Const"
      attr {
        key: "dtype"
        value {
          type: DT_INT32
        }
      }
      attr {
        key: "value"
        value {
          tensor {
            dtype: DT_INT32
            tensor_shape {
            }
            int_val: 1
          }
        }
      }
    }
    node_def {
      name: "make_mel_spectorogram/einsum/mul"
      op: "Mul"
      input: "make_mel_spectorogram/einsum/mul/x:output:0"
      input: "make_mel_spectorogram/einsum/strided_slice:output:0"
      attr {
        key: "T"
        value {
          type: DT_INT32
        }
      }
    }
    node_def {
      name: "make_mel_spectorogram/einsum/mul_1/y"
      op: "Const"
      attr {
        key: "dtype"
        value {
          type: DT_INT32
        }
      }
      attr {
        key: "value"
        value {
          tensor {
            dtype: DT_INT32
            tensor_shape {
            }
            int_val: 30
          }
        }
      }
    }
    node_def {
      name: "make_mel_spectorogram/einsum/mul_1"
      op: "Mul"
      input: "make_mel_spectorogram/einsum/mul:z:0"
      input: "make_mel_spectorogram/einsum/mul_1/y:output:0"
      attr {
        key: "T"
        value {
          type: DT_INT32
        }
      }
    }
    node_def {
      name: "make_mel_spectorogram/einsum/Reshape/shape/1"
      op: "Const"
      attr {
        key: "dtype"
        value {
          type: DT_INT32
        }
      }
      attr {
        key: "value"
        value {
          tensor {
            dtype: DT_INT32
            tensor_shape {
            }
            int_val: 513
          }
        }
      }
    }
    node_def {
      name: "make_mel_spectorogram/einsum/Reshape/shape"
      op: "Pack"
      input: "make_mel_spectorogram/einsum/mul_1:z:0"
      input: "make_mel_spectorogram/einsum/Reshape/shape/1:output:0"
      attr {
        key: "N"
        value {
          i: 2
        }
      }
      attr {
        key: "T"
        value {
          type: DT_INT32
        }
      }
      attr {
        key: "axis"
        value {
          i: 0
        }
      }
    }
    node_def {
      name: "make_mel_spectorogram/einsum/Reshape"
      op: "Reshape"
      input: "make_mel_spectorogram/einsum/transpose:y:0"
      input: "make_mel_spectorogram/einsum/Reshape/shape:output:0"
      attr {
        key: "T"
        value {
          type: DT_FLOAT
        }
      }
      attr {
        key: "Tshape"
        value {
          type: DT_INT32
        }
      }
    }
    node_def {
      name: "make_mel_spectorogram/einsum/MatMul"
      op: "MatMul"
      input: "make_mel_spectorogram/einsum/Reshape:output:0"
      input: "make_mel_spectorogram/einsum/transpose_1:y:0"
      attr {
        key: "T"
        value {
          type: DT_FLOAT
        }
      }
      attr {
        key: "transpose_a"
        value {
          b: false
        }
      }
      attr {
        key: "transpose_b"
        value {
          b: false
        }
      }
    }
    node_def {
      name: "make_mel_spectorogram/einsum/Reshape_1/shape/1"
      op: "Const"
      attr {
        key: "dtype"
        value {
          type: DT_INT32
        }
      }
      attr {
        key: "value"
        value {
          tensor {
            dtype: DT_INT32
            tensor_shape {
            }
            int_val: 30
          }
        }
      }
    }
    node_def {
      name: "make_mel_spectorogram/einsum/Reshape_1/shape/2"
      op: "Const"
      attr {
        key: "dtype"
        value {
          type: DT_INT32
        }
      }
      attr {
        key: "value"
        value {
          tensor {
            dtype: DT_INT32
            tensor_shape {
            }
            int_val: 128
          }
        }
      }
    }
    node_def {
      name: "make_mel_spectorogram/einsum/Reshape_1/shape"
      op: "Pack"
      input: "make_mel_spectorogram/einsum/strided_slice:output:0"
      input: "make_mel_spectorogram/einsum/Reshape_1/shape/1:output:0"
      input: "make_mel_spectorogram/einsum/Reshape_1/shape/2:output:0"
      attr {
        key: "N"
        value {
          i: 3
        }
      }
      attr {
        key: "T"
        value {
          type: DT_INT32
        }
      }
      attr {
        key: "axis"
        value {
          i: 0
        }
      }
    }
    node_def {
      name: "make_mel_spectorogram/einsum/Reshape_1"
      op: "Reshape"
      input: "make_mel_spectorogram/einsum/MatMul:product:0"
      input: "make_mel_spectorogram/einsum/Reshape_1/shape:output:0"
      attr {
        key: "T"
        value {
          type: DT_FLOAT
        }
      }
      attr {
        key: "Tshape"
        value {
          type: DT_INT32
        }
      }
    }
    node_def {
      name: "make_mel_spectorogram/einsum/transpose_2/perm"
      op: "Const"
      attr {
        key: "dtype"
        value {
          type: DT_INT32
        }
      }
      attr {
        key: "value"
        value {
          tensor {
            dtype: DT_INT32
            tensor_shape {
              dim {
                size: 3
              }
            }
            tensor_content: "\000\000\000\000\001\000\000\000\002\000\000\000"
          }
        }
      }
    }
    node_def {
      name: "make_mel_spectorogram/einsum/transpose_2"
      op: "Transpose"
      input: "make_mel_spectorogram/einsum/Reshape_1:output:0"
      input: "make_mel_spectorogram/einsum/transpose_2/perm:output:0"
      attr {
        key: "T"
        value {
          type: DT_FLOAT
        }
      }
      attr {
        key: "Tperm"
        value {
          type: DT_INT32
        }
      }
    }
    node_def {
      name: "power_to_db/Const"
      op: "Const"
      attr {
        key: "dtype"
        value {
          type: DT_INT32
        }
      }
      attr {
        key: "value"
        value {
          tensor {
            dtype: DT_INT32
            tensor_shape {
              dim {
                size: 3
              }
            }
            tensor_content: "\000\000\000\000\001\000\000\000\002\000\000\000"
          }
        }
      }
    }
    node_def {
      name: "power_to_db/Max"
      op: "Max"
      input: "make_mel_spectorogram/einsum/transpose_2:y:0"
      input: "power_to_db/Const:output:0"
      attr {
        key: "T"
        value {
          type: DT_FLOAT
        }
      }
      attr {
        key: "Tidx"
        value {
          type: DT_INT32
        }
      }
      attr {
        key: "keep_dims"
        value {
          b: false
        }
      }
    }
    node_def {
      name: "power_to_db/clip_by_value/Minimum"
      op: "Minimum"
      input: "make_mel_spectorogram/einsum/transpose_2:y:0"
      input: "power_to_db/Max:output:0"
      attr {
        key: "T"
        value {
          type: DT_FLOAT
        }
      }
    }
    node_def {
      name: "power_to_db/clip_by_value/y"
      op: "Const"
      attr {
        key: "dtype"
        value {
          type: DT_FLOAT
        }
      }
      attr {
        key: "value"
        value {
          tensor {
            dtype: DT_FLOAT
            tensor_shape {
            }
            float_val: 1.000000013351432e-10
          }
        }
      }
    }
    node_def {
      name: "power_to_db/clip_by_value"
      op: "Maximum"
      input: "power_to_db/clip_by_value/Minimum:z:0"
      input: "power_to_db/clip_by_value/y:output:0"
      attr {
        key: "T"
        value {
          type: DT_FLOAT
        }
      }
    }
    node_def {
      name: "power_to_db/log_with_base/Log"
      op: "Log"
      input: "power_to_db/clip_by_value:z:0"
      attr {
        key: "T"
        value {
          type: DT_FLOAT
        }
      }
    }
    node_def {
      name: "power_to_db/log_with_base/Log_1/x"
      op: "Const"
      attr {
        key: "dtype"
        value {
          type: DT_FLOAT
        }
      }
      attr {
        key: "value"
        value {
          tensor {
            dtype: DT_FLOAT
            tensor_shape {
            }
            float_val: 10.0
          }
        }
      }
    }
    node_def {
      name: "power_to_db/log_with_base/Log_1"
      op: "Log"
      input: "power_to_db/log_with_base/Log_1/x:output:0"
      attr {
        key: "T"
        value {
          type: DT_FLOAT
        }
      }
    }
    node_def {
      name: "power_to_db/log_with_base/truediv"
      op: "RealDiv"
      input: "power_to_db/log_with_base/Log:y:0"
      input: "power_to_db/log_with_base/Log_1:y:0"
      attr {
        key: "T"
        value {
          type: DT_FLOAT
        }
      }
    }
    node_def {
      name: "power_to_db/mul/x"
      op: "Const"
      attr {
        key: "dtype"
        value {
          type: DT_FLOAT
        }
      }
      attr {
        key: "value"
        value {
          tensor {
            dtype: DT_FLOAT
            tensor_shape {
            }
            float_val: 10.0
          }
        }
      }
    }
    node_def {
      name: "power_to_db/mul"
      op: "Mul"
      input: "power_to_db/mul/x:output:0"
      input: "power_to_db/log_with_base/truediv:z:0"
      attr {
        key: "T"
        value {
          type: DT_FLOAT
        }
      }
    }
    node_def {
      name: "power_to_db/Maximum/x"
      op: "Const"
      attr {
        key: "dtype"
        value {
          type: DT_FLOAT
        }
      }
      attr {
        key: "value"
        value {
          tensor {
            dtype: DT_FLOAT
            tensor_shape {
            }
            float_val: 1.000000013351432e-10
          }
        }
      }
    }
    node_def {
      name: "power_to_db/Maximum"
      op: "Maximum"
      input: "power_to_db/Maximum/x:output:0"
      input: "power_to_db/Max:output:0"
      attr {
        key: "T"
        value {
          type: DT_FLOAT
        }
      }
    }
    node_def {
      name: "power_to_db/log_with_base_1/Log"
      op: "Log"
      input: "power_to_db/Maximum:z:0"
      attr {
        key: "T"
        value {
          type: DT_FLOAT
        }
      }
    }
    node_def {
      name: "power_to_db/log_with_base_1/Log_1/x"
      op: "Const"
      attr {
        key: "dtype"
        value {
          type: DT_FLOAT
        }
      }
      attr {
        key: "value"
        value {
          tensor {
            dtype: DT_FLOAT
            tensor_shape {
            }
            float_val: 10.0
          }
        }
      }
    }
    node_def {
      name: "power_to_db/log_with_base_1/Log_1"
      op: "Log"
      input: "power_to_db/log_with_base_1/Log_1/x:output:0"
      attr {
        key: "T"
        value {
          type: DT_FLOAT
        }
      }
    }
    node_def {
      name: "power_to_db/log_with_base_1/truediv"
      op: "RealDiv"
      input: "power_to_db/log_with_base_1/Log:y:0"
      input: "power_to_db/log_with_base_1/Log_1:y:0"
      attr {
        key: "T"
        value {
          type: DT_FLOAT
        }
      }
    }
    node_def {
      name: "power_to_db/mul_1/x"
      op: "Const"
      attr {
        key: "dtype"
        value {
          type: DT_FLOAT
        }
      }
      attr {
        key: "value"
        value {
          tensor {
            dtype: DT_FLOAT
            tensor_shape {
            }
            float_val: 10.0
          }
        }
      }
    }
    node_def {
      name: "power_to_db/mul_1"
      op: "Mul"
      input: "power_to_db/mul_1/x:output:0"
      input: "power_to_db/log_with_base_1/truediv:z:0"
      attr {
        key: "T"
        value {
          type: DT_FLOAT
        }
      }
    }
    node_def {
      name: "power_to_db/sub"
      op: "Sub"
      input: "power_to_db/mul:z:0"
      input: "power_to_db/mul_1:z:0"
      attr {
        key: "T"
        value {
          type: DT_FLOAT
        }
      }
    }
    node_def {
      name: "power_to_db/Const_1"
      op: "Const"
      attr {
        key: "dtype"
        value {
          type: DT_INT32
        }
      }
      attr {
        key: "value"
        value {
          tensor {
            dtype: DT_INT32
            tensor_shape {
              dim {
                size: 3
              }
            }
            tensor_content: "\000\000\000\000\001\000\000\000\002\000\000\000"
          }
        }
      }
    }
    node_def {
      name: "power_to_db/Max_1"
      op: "Max"
      input: "power_to_db/sub:z:0"
      input: "power_to_db/Const_1:output:0"
      attr {
        key: "T"
        value {
          type: DT_FLOAT
        }
      }
      attr {
        key: "Tidx"
        value {
          type: DT_INT32
        }
      }
      attr {
        key: "keep_dims"
        value {
          b: false
        }
      }
    }
    node_def {
      name: "power_to_db/sub_1/y"
      op: "Const"
      attr {
        key: "dtype"
        value {
          type: DT_FLOAT
        }
      }
      attr {
        key: "value"
        value {
          tensor {
            dtype: DT_FLOAT
            tensor_shape {
            }
            float_val: 80.0
          }
        }
      }
    }
    node_def {
      name: "power_to_db/sub_1"
      op: "Sub"
      input: "power_to_db/Max_1:output:0"
      input: "power_to_db/sub_1/y:output:0"
      attr {
        key: "T"
        value {
          type: DT_FLOAT
        }
      }
    }
    node_def {
      name: "power_to_db/Maximum_1"
      op: "Maximum"
      input: "power_to_db/sub:z:0"
      input: "power_to_db/sub_1:z:0"
      attr {
        key: "T"
        value {
          type: DT_FLOAT
        }
      }
    }
    node_def {
      name: "power_to_db/add/y"
      op: "Const"
      attr {
        key: "dtype"
        value {
          type: DT_FLOAT
        }
      }
      attr {
        key: "value"
        value {
          tensor {
            dtype: DT_FLOAT
            tensor_shape {
            }
            float_val: 40.0
          }
        }
      }
    }
    node_def {
      name: "power_to_db/add"
      op: "Add"
      input: "power_to_db/Maximum_1:z:0"
      input: "power_to_db/add/y:output:0"
      attr {
        key: "T"
        value {
          type: DT_FLOAT
        }
      }
    }
    node_def {
      name: "power_to_db/truediv/y"
      op: "Const"
      attr {
        key: "dtype"
        value {
          type: DT_FLOAT
        }
      }
      attr {
        key: "value"
        value {
          tensor {
            dtype: DT_FLOAT
            tensor_shape {
            }
            float_val: 40.0
          }
        }
      }
    }
    node_def {
      name: "power_to_db/truediv"
      op: "RealDiv"
      input: "power_to_db/add:z:0"
      input: "power_to_db/truediv/y:output:0"
      attr {
        key: "T"
        value {
          type: DT_FLOAT
        }
      }
    }
    ret {
      key: "mulaw_encode_cast"
      value: "MuLaw_Encode/Cast:y:0"
    }
    ret {
      key: "normalize"
      value: "normalize_0:z:0"
    }
    ret {
      key: "one_hot"
      value: "one_hot_0:output:0"
    }
    ret {
      key: "power_to_db_truediv"
      value: "power_to_db/truediv:z:0"
    }
  }
  function {
    signature {
      name: "tf_data_structured_function_wrapper_JDgOH9okeRc"
      input_arg {
        name: "arg0"
        type: DT_STRING
      }
      output_arg {
        name: "parsesingleexample_parsesingleexample"
        type: DT_FLOAT
      }
      description: "Wrapper for passing nested structures to and from tf.data functions."
    }
    node_def {
      name: "ParseSingleExample/Const"
      op: "Const"
      attr {
        key: "dtype"
        value {
          type: DT_FLOAT
        }
      }
      attr {
        key: "value"
        value {
          tensor {
            dtype: DT_FLOAT
            tensor_shape {
            }
            float_val: 0.0
          }
        }
      }
    }
    node_def {
      name: "ParseSingleExample/ParseSingleExample"
      op: "ParseSingleExample"
      input: "arg0"
      input: "ParseSingleExample/Const:output:0"
      attr {
        key: "Tdense"
        value {
          list {
            type: DT_FLOAT
          }
        }
      }
      attr {
        key: "dense_keys"
        value {
          list {
            s: "wave"
          }
        }
      }
      attr {
        key: "dense_shapes"
        value {
          list {
            shape {
              dim {
                size: -1
              }
            }
          }
        }
      }
      attr {
        key: "num_sparse"
        value {
          i: 0
        }
      }
      attr {
        key: "sparse_keys"
        value {
          list {
          }
        }
      }
      attr {
        key: "sparse_types"
        value {
          list {
          }
        }
      }
    }
    ret {
      key: "parsesingleexample_parsesingleexample"
      value: "ParseSingleExample/ParseSingleExample:dense_values:0"
    }
  }
}
versions {
  producer: 27
  min_consumer: 12
}
